nn/models/320x240/best_model.npz (npz, 446752 bytes, 22 tensors)

predictor.3.bias f4 [3]
0	0x3cfd6fd2	0.03093711
1	0xbd1ffe9f	-0.039061185
2	0x3dfd6c75	0.12374202

predictor.0.weight f4 [128, 128]
0	0xbd32d2af	-0.043657955
1	0x3dbc0bc6	0.09181933
2	0x3c9905d6	0.01867954
3	0xbd895fa3	-0.067076944
4	0xbd7ddadc	-0.0619763
5	0xbd14d93c	-0.036339983
6	0xbdb97a00	-0.09056473
7	0x3b94665f	0.004528805
8	0x3dbaf35a	0.09128447
9	0x3dce75b6	0.10081045
10	0xbba0c191	-0.0049058874
11	0x3da48772	0.08033647
12	0x3cfb8768	0.030704215
13	0x3c2d516b	0.010578494
14	0x3d2ed8a5	0.042687077
15	0x3d0c1f55	0.034209568
16	0x3d99cb1d	0.07509444
17	0xbd8d75fb	-0.069072686
18	0xbda1fbb5	-0.079093374
19	0xbd136288	-0.03598264
20	0xbc597689	-0.01327289
21	0x3d54ea4e	0.051981263
22	0x3c9316a3	0.01795513
23	0x3d063eba	0.032774664
24	0x3c8a91c3	0.016915208
25	0x3c39c348	0.011338063
26	0xbcba1eb3	-0.022719717
27	0xbd98634c	-0.074408144
28	0xbd203aba	-0.039118506
29	0xbd1039eb	-0.035211485
30	0x3d47a10b	0.048737567
31	0xbdc4809d	-0.095948435
32	0x3cac4584	0.021029241
33	0x3d441bd8	0.047878116
34	0xbd423a15	-0.047418673
35	0x3daf6e85	0.08566002
36	0xbbfb10c0	-0.007661909
37	0xbdb27f9f	-0.08715748
38	0xbd8d1954	-0.068895966
39	0xbd51a71c	-0.05118476
40	0x3c80c1d3	0.015717423
41	0xbdc46f30	-0.0959152
42	0x3c903716	0.017604392
43	0x3c1ed8ec	0.009695273
44	0x3d38c1f4	0.045106843
45	0xbc173f62	-0.00923142
46	0xbcc11a4a	-0.023572106
47	0xbd50fc3b	-0.051021796
48	0x3d677e41	0.05651689
49	0xbd8e85a8	-0.06959087
50	0xbd833858	-0.06407231
51	0xbd9b38f9	-0.07579226
52	0xbd74917f	-0.05970907
53	0x3d0b307f	0.033981796
54	0x3c2ff970	0.010740623
55	0xbcfd265f	-0.030902086
56	0x3d5604d1	0.052250687
57	0xbd974e7d	-0.07388017
58	0xbd735a16	-0.059412085
59	0xbd35c17f	-0.044373985
60	0xbd90a787	-0.07063203
61	0x3d608118	0.054810613
62	0x3dbb5e63	0.09148862
63	0x3c88a788	0.016681448
64	0xbd99dc1c	-0.07512686
65	0xbdc2b302	-0.09506799
66	0xbdb50fd0	-0.088409066
67	0xbc1506cf	-0.009095862
68	0xbcfd24cb	-0.030901333
69	0x3cf2cd04	0.029638775
70	0x3d6c42fb	0.057681065
71	0xbc2e6fc5	-0.010646765
72	0x3b962cf6	0.0045829965
73	0xbdbd8ddc	-0.09255573
74	0xbd4eba60	-0.05047071
75	0xbd61fe91	-0.055174414
76	0xbd2eb314	-0.04265125
77	0x3cb75cd8	0.022383139
78	0xbda83c0a	-0.082145765
79	0x3b734242	0.003711835
80	0xbcded6ec	-0.027202092
81	0xbc725f98	-0.014793299
82	0xbd9aa1f3	-0.075504206
83	0x3d018c80	0.031628132
84	0xbd1456fb	-0.036215764
85	0xbc7126fe	-0.014718769
86	0xbd5840ba	-0.052796103
87	0xbd948f50	-0.07253897
88	0xbd18506d	-0.037186075
89	0xbd9eb1ff	-0.07748794
90	0x3ab5b37a	0.0013862692
91	0x3dd09dc2	0.1018634
92	0xbc8294c2	-0.015940074
93	0xbdf4bcf0	-0.119500995
94	0x3ca2e4e5	0.019884536
95	0x3d12a6d1	0.03580362
96	0x3d1b24a9	0.03787676
97	0xbbcaa56e	-0.0061842715
98	0xbd55ecc9	-0.05222777
99	0xbd9ba6ec	-0.07600197
100	0xbcd88ebc	-0.026435249
101	0xbc1e6cd3	-0.0096695
102	0x3d9ae4a6	0.075631425
103	0xbd7804f9	-0.060551617
104	0xbd8b6567	-0.0680645
105	0xbdd4158f	-0.103556745
106	0x3cdc83b2	0.026918266
107	0xbd7a5de8	-0.061124712
108	0x3d2be47c	0.041965947
109	0x3c1c6d3a	0.009547526
110	0x3d9ae6ef	0.07563578
111	0xbc3b108a	-0.011417517
112	0xbc463c73	-0.012099373
113	0xbd902e52	-0.07040085
114	0xbdf4dada	-0.11955805
115	0x3c6ef905	0.014585738
116	0xbd6ccc92	-0.05781228
117	0x3b1c5104	0.0023852
118	0xbd6e1b75	-0.058131654
119	0x3d39d2cf	0.04536706
120	0xbd20ec02	-0.039287575
121	0x3c2c3aeb	0.010512094
122	0x3cfda65c	0.030963115
123	0xbd8a51fd	-0.06753919
124	0x3cf62577	0.030047162
125	0xbd0228ca	-0.03177718
126	0x3ae90363	0.0017777499
127	0x3d7a1eb1	0.061064426
128	0xbd6d2aa7	-0.057902005
129	0xbd7a5a16	-0.06112107
130	0x3d76cb9e	0.06025278
131	0x3d56c0af	0.05242985
132	0x3d31bd50	0.043393433
133	0xbdb2c6ce	-0.08729325
134	0xbc034237	-0.008011392
135	0xbdbcc3f5	-0.09217063
136	0x3da06f03	0.07833674
137	0x3d15213e	0.036408655
138	0x3cf6012d	0.030029858
139	0x3cff0204	0.03112889
140	0x3c8acda0	0.016943753
141	0x3c674164	0.014114711
142	0x3d913b99	0.070914455
143	0xbd2ef2c5	-0.04271199
144	0x3cfea9ad	0.031086767
145	0xbd2d33db	-0.04228578
146	0x3dceeeb9	0.101041265
147	0xbca1a7ce	-0.019733336
148	0x3c9fe9da	0.019520689
149	0xbc03b9b4	-0.008039881
150	0xbd8ed456	-0.069740936
151	0xbd40d640	-0.047079325
152	0xbb073e92	-0.002063666
153	0x3d13fd57	0.036130276
154	0xba2c60a5	-0.00065756805
155	0xbcdccd96	-0.0269535
156	0x3da4860f	0.08033382
157	0x3da7e960	0.081988096
158	0x3d80121d	0.06253455
159	0x3dc86a00	0.09785843
160	0x3bc92d11	0.0061394055
161	0x3c18e3be	0.009331642
162	0xbbf7dfe2	-0.0075645307
163	0x3ca1220b	0.019669553
164	0x3d473d58	0.048642486
165	0x3a1c2f10	0.00059579406
166	0xbcddb772	-0.027065013
167	0xbc01623c	-0.007896956
168	0x3d2ee96f	0.04270309
169	0x3da10f35	0.07864229
170	0xbcf8907b	-0.030342331
171	0xbd14ebe3	-0.03635777
172	0xbc257606	-0.01009894
173	0x3ca08db8	0.019598827
174	0xbc61b957	-0.013777099
175	0x3db81ebe	0.089902386
176	0x3daa0954	0.083025604
177	0x3d472208	0.04861644
178	0xbca0e3ce	-0.019639876
179	0x3dcad4d8	0.09903878
180	0x3daec9ff	0.085346214
181	0x3d05aa59	0.03263316
182	0x3d87d490	0.0663234
183	0x3acaa40e	0.0015460269
184	0x3d6dbb3e	0.058039896
185	0xbd73ffed	-0.05957024
186	0xbd94c70d	-0.072645284
187	0xbc28248a	-0.010262618
188	0x3b45df8b	0.0030193056
189	0x3d91d8e4	0.07121447
190	0x3cc6fd41	0.024290683
191	0x3d07c1d2	0.033143826
192	0xbd53dd57	-0.051724758
193	0xbd2ebb4a	-0.04265908
194	0x3d48dc42	0.04903818
195	0xbdcacd3d	-0.09902427
196	0x3d4250aa	0.04744021
197	0x3d8091e5	0.06277827
198	0x3cb0a211	0.021561654
199	0x3cd84b50	0.0264031
200	0x3dcc1bce	0.09966241
201	0xbd53aff3	-0.05168147
202	0x3d6ea2e8	0.05826083
203	0x3c8aa881	0.016926052
204	0x3d99193b	0.074755155
205	0xbd4af4c0	-0.049549818
206	0x3d33e9a0	0.043923974
207	0xbd4ccdeb	-0.050001066
208	0x3d9055e5	0.07047633
209	0x3dd464be	0.103707775
210	0xbcae39c7	-0.021267785
211	0xbc494e96	-0.012286803
212	0x3cf1b022	0.029502932
213	0x3d0c919b	0.034318548
214	0xbd2b0907	-0.041756656
215	0xbc96fa6a	-0.018429954
216	0x3d3aaa68	0.04557267
217	0xbd6be6a4	-0.057593003
218	0x3d0c581f	0.034263726
219	0xbd77f784	-0.060538784
220	0xbd6a6d42	-0.057233103
221	0x3d8e4ae9	0.06947882
222	0x3d0d4b4a	0.03449563
223	0x3da487a5	0.08033685
224	0xbd1d3018	-0.038375944
225	0x3cde5ef5	0.027144888
226	0xbcfde878	-0.030994639
227	0xbdb650a4	-0.089021
228	0x3d4d72b8	0.050158232
229	0x3dab9075	0.08377162
230	0xbbd143a6	-0.006386238
231	0x3c815f80	0.015792608
232	0x3ca2a4d3	0.019853985
233	0x3dbfd439	0.0936665
234	0x3d9b71ec	0.07590088
235	0x3d859358	0.06522244
236	0xbc8f44d7	-0.01748888
237	0x3b5f369b	0.0034059647
238	0x3d8eb28b	0.06967648
239	0x3c4b3d01	0.012404681
240	0x3d8c5690	0.06852448
241	0x3d23baa3	0.039972913
242	0x3d3ff80b	0.04686741
243	0x3dade6d4	0.084912926
244	0xbd6a90a3	-0.057266843
245	0x3c46519a	0.012104416
246	0x3d9cd32e	0.07657467
247	0x3c55e087	0.01305402
248	0x3da84625	0.08216504
249	0x3d83094c	0.063982576
250	0x3d9190e4	0.07107714
251	0x3d2382d0	0.039919674
252	0xbd90ba3f	-0.070667736
253	0xbd785a6c	-0.060633108
254	0x3cbb7b89	0.022886055
255	0xbb768ac9	-0.0037619343

features.4.bn.running_mean f4 [128]
0	0xc08f0eb8	-4.4705467
1	0x3f652526	0.8950981
2	0xc02c30b6	-2.690473
3	0xc05706ad	-3.3597825
4	0xbfc1c4cc	-1.5138183
5	0xbf9df232	-1.2339537
6	0xbfe65941	-1.7995988
7	0xc064f04b	-3.5771663
8	0x40163033	2.3466918
9	0xbf010d56	-0.50410974
10	0xc07e1b7e	-3.970428
11	0xbe5b54df	-0.21419095
12	0xbfb76799	-1.432849
13	0xc09042f3	-4.5081725
14	0xc0905e42	-4.511506
15	0x403996d6	2.8998313
16	0xc04bae96	-3.1825309
17	0x3e8d91b9	0.2765024
18	0xc04e32d8	-3.2218533
19	0xc069b179	-3.651457
20	0xc0949eb4	-4.644373
21	0xc07e258d	-3.971042
22	0xbe9de59c	-0.3083924
23	0xc030e3a7	-2.7638948
24	0xbfdc2c03	-1.7200931
25	0xc03b8f43	-2.930619
26	0xc065c0c1	-3.5898898
27	0x3ffad248	1.9595423
28	0xbfdb599f	-1.7136725
29	0xc02759b2	-2.6148496
30	0x402278ff	2.538635
31	0xc0451707	-3.0795305
32	0x3f84537e	1.033798
33	0xbecff1fa	-0.406143
34	0xbef343c6	-0.47512645
35	0x3f8743f4	1.0567613
36	0x4036a28d	2.8536713
37	0xc086749b	-4.201734
38	0xc08a0e97	-4.314281
39	0xbff9bdf0	-1.9511089
40	0xc0a6d9e6	-5.214099
41	0xc0195329	-2.3957007
42	0xbff67800	-1.9255371
43	0xbc88bd1e	-0.01669174
44	0xc00aa61e	-2.166389
45	0xc0aff86b	-5.4990745
46	0xc097fb5c	-4.7494335
47	0xc066b14e	-3.6045718
48	0xc0442416	-3.0647025
49	0x4008737d	2.1320488
50	0xc027cab0	-2.621746
51	0xc085d076	-4.181697
52	0xc0a084a3	-5.016191
53	0xc090833a	-4.516019
54	0x3f7527b4	0.9576371
55	0xc079ba61	-3.9020007
56	0x402a315d	2.659263
57	0xc0919845	-4.5498376
58	0xbf71f197	-0.9450926
59	0xc09444e7	-4.633411
60	0xc083b9c1	-4.116425
61	0xc0831917	-4.0968127
62	0x3fe2ce03	1.771912
63	0x3fac3340	1.345314
64	0xbfc75b10	-1.5574665
65	0xc04372d2	-3.053883
66	0xbfb34ad6	-1.4007213
67	0xc0543990	-3.3160133
68	0x40836913	4.1065764
69	0xc06da7bc	-3.7133627
70	0xc084668e	-4.137519
71	0x3fab4100	1.3379211
72	0xc089e789	-4.3095136
73	0xc093d372	-4.619561
74	0xc0214a70	-2.5201683
75	0xc02364c9	-2.5530264
76	0xc09a5dc6	-4.823947
77	0xc04db8f4	-3.2144136
78	0xc089d7ae	-4.307578
79	0x4014fccf	2.3279302
80	0x3f932f68	1.1498842
81	0xbcdd6e52	-0.027030144
82	0xc07b4581	-3.9261172
83	0x3f70fa8b	0.941323
84	0xc086c28f	-4.21125
85	0xc08fe7c5	-4.497042
86	0xc00c9f02	-2.197205
87	0xbfe5d626	-1.7955978
88	0xc056e862	-3.3579335
89	0xc012359b	-2.2845218
90	0xbfec4608	-1.8458872
91	0xc05269f3	-3.2877166
92	0xc0240d44	-2.5633097
93	0xc056ce53	-3.356343
94	0xc00a8485	-2.1643384
95	0xbf8e98a2	-1.114033
96	0xc0aacae0	-5.337265
97	0xc02def4e	-2.717731
98	0x3f6ac658	0.917089
99	0xc0a8bbb6	-5.272914
100	0xc01f017b	-2.4844654
101	0xc07d2b16	-3.9557548
102	0xc075879c	-3.836402
103	0xc048ad21	-3.135567
104	0x3d03e650	0.032202065
105	0xc007da5d	-2.1227028
106	0xbf646979	-0.8922344
107	0xc080231b	-4.0042853
108	0x4011b72e	2.2768054
109	0x4041f4f0	3.0305748
110	0x3f7bce09	0.9836126
111	0xc0551903	-3.3296516
112	0x3f56fbb9	0.8397785
113	0x3f4dc8bf	0.8038444
114	0xc05c9078	-3.4463177
115	0xbeea763e	-0.45793337
116	0xc053057c	-3.2972097
117	0xc0527bac	-3.2887983
118	0xc07549ab	-3.8326213
119	0xc0b8155c	-5.7526073
120	0xbe915851	-0.28387693
121	0xc029171e	-2.642036
122	0xbf6afc41	-0.9179116
123	0xc0805c31	-4.011254
124	0xbfcc5ed7	-1.5966443
125	0xc084c034	-4.1484623
126	0xc0070f59	-2.1103117
127	0xc09e4c71	-4.946831

features.4.conv.bias f4 [128]
0	0x39031da2	0.00012504173
1	0xb913a747	-0.00014081328
2	0x3891d41a	6.953646e-05
3	0xb7ba374a	-2.2198674e-05
4	0x37d7c656	2.5722355e-05
5	0x38ba2dd7	8.8777095e-05
6	0xb972ce3f	-0.00023155751
7	0xb9916c80	-0.00027737394
8	0x37cad3f2	2.4178971e-05
9	0x3757a58b	1.2853542e-05
10	0x37b65f32	2.174042e-05
11	0xb90b28c5	-0.00013271261
12	0xb8e545fc	-0.000109326065
13	0x37a6addc	1.9869702e-05
14	0xb8aaef84	-8.150845e-05
15	0x355a40a8	8.1305416e-07
16	0xb8d1c9af	-0.00010003463
17	0xb90a3dca	-0.00013183724
18	0xb9d4607b	-0.00040507675
19	0x37d139d2	2.4941666e-05
20	0xb9430cec	-0.00018601463
21	0xb71da662	-9.396668e-06
22	0x38a5884d	7.893201e-05
23	0xb65d7151	-3.2997525e-06
24	0xb90899cd	-0.00013027266
25	0x38ac54bb	8.2173814e-05
26	0x397e9fbf	0.00024282838
27	0xb7f9c25d	-2.977362e-05
28	0xb8d69b0a	-0.000102331935
29	0xb741d00a	-1.1552134e-05
30	0x37d735c9	2.5655043e-05
31	0xb7de4acc	-2.6499292e-05
32	0x3727153f	9.958922e-06
33	0xb8bb37de	-8.927261e-05
34	0x3950ceae	0.0001991342
35	0xb79a743c	-1.8412356e-05
36	0x383eb9a5	4.5472425e-05
37	0x396d6960	0.00022641337
38	0xb88fb21f	-6.851949e-05
39	0xb8b7e3c6	-8.768546e-05
40	0x38864a17	6.403418e-05
41	0xb886ae5a	-6.4220934e-05
42	0xb86f4412	-5.7045436e-05
43	0x382f0c40	4.173466e-05
44	0xb878a60a	-5.9282444e-05
45	0x3731c053	1.0594801e-05
46	0xb96c8360	-0.00022555655
47	0x37a82f98	2.0049323e-05
48	0xb92c5a7f	-0.0001643691
49	0xb8a04c2d	-7.6435834e-05
50	0x3822281c	3.8661165e-05
51	0x389e25e9	7.5410884e-05
52	0xb7e515ba	-2.7309045e-05
53	0xb89b5d24	-7.408325e-05
54	0x3902168e	0.00012406168
55	0x388430af	6.3033185e-05
56	0x3859d187	5.193197e-05
57	0xb8c21155	-9.253869e-05
58	0x38648bcd	5.4489636e-05
59	0xb8d9a445	-0.00010377964
60	0x380267fd	3.1091262e-05
61	0xb915efbb	-0.00014299054
62	0x38ca942a	9.659708e-05
63	0xb825aa53	-3.9497692e-05
64	0x3752b358	1.2558732e-05
65	0xb8102f74	-3.437647e-05
66	0x388ad8b3	6.620716e-05
67	0x38b895ff	8.801743e-05
68	0x384c445a	4.8701047e-05
69	0xb90582c0	-0.00012732577
70	0xb79e87be	-1.8898278e-05
71	0xb79a69dc	-1.8407525e-05
72	0xb858acc6	-5.165932e-05
73	0x39078862	0.0001292541
74	0xb6361f56	-2.7138353e-06
75	0x37b542c7	2.1607977e-05
76	0xb7be3f21	-2.2679162e-05
77	0xb948b3a9	-0.00019140415
78	0x38f5963f	0.00011710496
79	0xb78f37f4	-1.7072984e-05
80	0xb7a493ff	-1.961924e-05
81	0x37ea46d6	2.792796e-05
82	0x378bc13a	1.666007e-05
83	0x39322693	0.00016989773
84	0xba74d663	-0.00093398074
85	0xb9b2f22a	-0.00034131232
86	0xb7ff3220	-3.042171e-05
87	0xba08ceb0	-0.0005218787
88	0xb84a883e	-4.828744e-05
89	0x36b45a3a	5.374922e-06
90	0x3800d6dd	3.0717685e-05
91	0x389023f1	6.87315e-05
92	0xb91f8525	-0.00015213022
93	0xb7f4d779	-2.9187404e-05
94	0x38405d3d	4.5863202e-05
95	0x38418509	4.6138684e-05
96	0xb869ab7a	-5.571123e-05
97	0xb8ad73a0	-8.27082e-05
98	0x3841c50f	4.619831e-05
99	0x385cab9b	5.2611907e-05
100	0xb8f4418d	-0.000116470364
101	0xb9022b53	-0.00012413906
102	0xb88e1a7d	-6.7760215e-05
103	0xb9931390	-0.000280526
104	0x3903eb62	0.0001258082
105	0xb99150f7	-0.0002771688
106	0xb95b481a	-0.00020912327
107	0xba161983	-0.00057258474
108	0x38397565	4.421677e-05
109	0x38bfdd5b	9.1488204e-05
110	0xb7635c5e	-1.355176e-05
111	0xb7fd14ed	-3.0169695e-05
112	0xb80a38d5	-3.2954693e-05
113	0x383ba77e	4.4740264e-05
114	0x3716ac88	8.980867e-06
115	0xb8bc71e0	-8.9857494e-05
116	0xb748a5e6	-1.1959555e-05
117	0x38dc12f7	0.0001049395
118	0x391659d4	0.00014338578
119	0xb9b5f2df	-0.00034703963
120	0xb9b26456	-0.00034025562
121	0x388d0041	6.723451e-05
122	0xb885d99f	-6.382469e-05
123	0x38d9a760	0.00010378542
124	0x380b3c70	3.319647e-05
125	0x3836bdc6	4.356892e-05
126	0xb9043502	-0.00012608248
127	0x39930dc2	0.00028048275

features.4.conv.weight f4 [128, 3, 3, 64]
0	0xbd05cd01	-0.03266621
1	0xbd41d3a8	-0.04732099
2	0xbdaf622d	-0.085636474
3	0xbd5881be	-0.052858107
4	0x3d4c616b	0.049897593
5	0xbcff4cf8	-0.031164631
6	0xbd1b3047	-0.037887838
7	0xbd3d9665	-0.046286006
8	0x3b180f1a	0.002320236
9	0xbd671723	-0.05641855
10	0xbd2e9c10	-0.0426293
11	0x3c97da14	0.018536605
12	0xbd559958	-0.052148193
13	0xbd112434	-0.035434917
14	0xbd49a76e	-0.04923194
15	0xbd9e2355	-0.07721583
16	0x3c3696f3	0.011144388
17	0xbcb82aa9	-0.02248128
18	0xbd25301d	-0.040329088
19	0xbd582860	-0.05277288
20	0x3b2b3278	0.002612261
21	0xbd849c94	-0.064751774
22	0xbc59e3a7	-0.013298905
23	0xbc73c5ca	-0.0148787
24	0xbca929fb	-0.0206499
25	0xbd8a806a	-0.06762774
26	0xbc68a68c	-0.014199864
27	0xbcce2c57	-0.025167627
28	0xbc020be0	-0.0079374015
29	0xbb3c7808	-0.0028758068
30	0xbdac5bb1	-0.08415926
31	0xbd1211e8	-0.035661608
32	0xbd26a62d	-0.04068582
33	0xbd6cc570	-0.05780548
34	0xbdb0884d	-0.08619747
35	0xbd004032	-0.03131122
36	0xb9b9ae29	-0.0003541571
37	0x3c8ce53b	0.01719915
38	0x3c468cca	0.012118528
39	0x3ce28675	0.027652005
40	0x3c3b6837	0.011438421
41	0x3ccb630c	0.024827503
42	0xbbe78a11	-0.0070660193
43	0xbcecf892	-0.028927121
44	0xbcda55d0	-0.026652247
45	0x3a434142	0.0007448384
46	0xbd80792e	-0.06273113
47	0xbd243aa3	-0.040094983
48	0xbcc8618a	-0.024460573
49	0xbcf7ad6d	-0.030234063
50	0xbd1933e8	-0.037403017
51	0xbcb35048	-0.021888867
52	0xba9cf633	-0.0011975229
53	0x3ce6009f	0.028076468
54	0xbb9d18bb	-0.004794208
55	0xba869de8	-0.0010270448
56	0xbbc855b4	-0.0061137322
57	0xbc588673	-0.013215649
58	0xbcebbfda	-0.028778005
59	0xbc71a142	-0.0147479195
60	0x3c844db7	0.016150339
61	0xbd9951c7	-0.07486301
62	0xbd1861b5	-0.037202556
63	0x3c572abd	0.013132748
64	0xbc98a324	-0.018632479
65	0xbbed8250	-0.0072482005
66	0xbdaeb44e	-0.08530484
67	0x3c8bb4eb	0.017054042
68	0x3c41635e	0.011803476
69	0xbcc57d3f	-0.024107574
70	0x3b80b5c6	0.003927919
71	0xbc904831	-0.017612549
72	0xbc1998ae	-0.009374781
73	0xbd8c7240	-0.06857729
74	0xbdad8247	-0.08472114
75	0xbd3cef81	-0.046126846
76	0x3b38cdc7	0.0028198825
77	0xbbe200bc	-0.00689706
78	0xbca63fd8	-0.020294115
79	0xbd78cfbf	-0.060744997
80	0x3cb6c537	0.022310836
81	0xbd0d07e5	-0.034431357
82	0xbacf3eec	-0.0015811599
83	0xbd2d026a	-0.04223863
84	0xbb281e72	-0.0025652912
85	0xbca16556	-0.019701641
86	0xbc2c9232	-0.010532903
87	0xbcfa0787	-0.030521167
88	0xbc2e2bdc	-0.010630574
89	0xbd3cdf82	-0.04611159
90	0x3b26fc2a	0.0025479891
91	0xbd1d6ece	-0.03843575
92	0xbd1a6308	-0.0376921
93	0x3c3ded1c	0.011592176
94	0xbdabf260	-0.08395839
95	0xbd5e7ff6	-0.05432125
96	0xbd3165e7	-0.043310072
97	0xbce97df1	-0.028502436
98	0xbbdecfac	-0.0067996588
99	0xbd7abe53	-0.061216664
100	0xbd991900	-0.074754715
101	0x3d5631a2	0.052293427
102	0x3d599d1f	0.053128358
103	0x3ce646e0	0.028109968
104	0x3c3ab515	0.011395712
105	0x3cbe07bf	0.023197053
106	0xbc09591b	-0.008383061
107	0xbc855bfc	-0.016279213
108	0x3b2c31d9	0.0026274829
109	0xbc1aa436	-0.009438565
110	0xbd82bc1e	-0.06383537
111	0x3ceb72a8	0.028741196
112	0x3cc9633f	0.024583457
113	0xbd198508	-0.037480384
114	0xbd360580	-0.04443884
115	0x3c950823	0.018192356
116	0xbc869df9	-0.01643275
117	0x3d156415	0.0364724
118	0xbb99859e	-0.004685118
119	0x3c538e2c	0.012912314
120	0x3cf515fb	0.029917708
121	0xbd80b6ed	-0.0628489
122	0xbd9b3402	-0.07578279
123	0xbaa8f5e9	-0.001289067
124	0xbceb5e09	-0.028731363
125	0xbc9a4c63	-0.018835252
126	0xbd4a7ebd	-0.049437273
127	0x3c1a8a4c	0.009432387
128	0xbc91bf99	-0.017791556
129	0xbbe345fc	-0.006935833
130	0xbd81184c	-0.063034624
131	0xbb915111	-0.0044347127
132	0x3ce9aacb	0.028523823
133	0xbc47786b	-0.012174706
134	0xbc840c16	-0.016119044
135	0xbd569ea4	-0.052397385
136	0x3c462a2c	0.0120950155
137	0xbc81f8c2	-0.015865687
138	0xbc42d1f9	-0.011890882
139	0xbd4b66f9	-0.04965875
140	0x3c981888	0.018566385
141	0xbd0bc75d	-0.034125675
142	0xbd6e4e8a	-0.05818037
143	0xbd051d62	-0.032498725
144	0xbcefbd2a	-0.029265005
145	0xbd00b76c	-0.031424925
146	0xbb789000	-0.0037927628
147	0x3b86195e	0.0040923795
148	0xbc9638d9	-0.018337654
149	0xbcd0fcfc	-0.025511257
150	0x3c96dbd6	0.018415373
151	0xbd71785d	-0.058952678
152	0xbb8df0bb	-0.004331676
153	0xbcbffc88	-0.023435846
154	0xbd0bcd16	-0.034131132
155	0xbd8655ed	-0.06559358
156	0xbd554ff2	-0.052078195
157	0xbd0501ce	-0.032472424
158	0xbd8c9cfe	-0.068658814
159	0xbc250a13	-0.010073203
160	0xbd2a274f	-0.041541394
161	0xbda88588	-0.08228594
162	0xbd9580e7	-0.07299977
163	0xbce5ab9e	-0.028035935
164	0xbd76b4be	-0.060230963
165	0x3cb9f1cf	0.022698311
166	0x3cd1f108	0.025627628
167	0x3cd9ea71	0.026601048
168	0xbd45e8cb	-0.04831771
169	0x3d9faf2b	0.077970825
170	0xbd6426dd	-0.055701125
171	0xbc233da3	-0.009963426
172	0xbd116f26	-0.03550639
173	0x3b6a6405	0.0035765183
174	0xbd8d2bc7	-0.068931155
175	0xbd20701d	-0.03916942
176	0xbd48a55b	-0.04898582
177	0xbc033c37	-0.008009962
178	0xbc237969	-0.009977677
179	0x3c0e447f	0.008683323
180	0x3d140caa	0.03614489
181	0x3b93fce4	0.004516231
182	0x3b3f2db0	0.002917152
183	0x3c35571c	0.011068132
184	0x3c0fe30f	0.008782162
185	0xbd524963	-0.05133952
186	0xbd322d63	-0.043500315
187	0xbdae2159	-0.08502454
188	0x3c208dbd	0.009799418
189	0xbd0be7ba	-0.03415654
190	0x3b02b0b2	0.0019941744
191	0xbc38a747	-0.011270351
192	0xbc1410b3	-0.0090371845
193	0xbce5ec5f	-0.028066812
194	0xbd11229e	-0.035433404
195	0xbca15911	-0.01969579
196	0x3acf988c	0.0015838309
197	0xbd3b935a	-0.045794822
198	0x3cd3bfd7	0.025848312
199	0xbcec26f3	-0.028827166
200	0xbd534c14	-0.051586226
201	0xbcc6fcea	-0.02429052
202	0xbd05cd13	-0.032666277
203	0xbd1dd4f6	-0.038533174
204	0xbaa66542	-0.0012694972
205	0xbcc974f9	-0.02459191
206	0x3c6739ce	0.014112903
207	0xbd6947e8	-0.05695334
208	0x3c728f30	0.014804646
209	0xbce83bfc	-0.028348915
210	0xbd18c152	-0.03729374
211	0xbb847cb8	-0.004043188
212	0xbc8a256d	-0.01686355
213	0xbd4e7455	-0.05040391
214	0xbcebbf83	-0.028777843
215	0xbcaeda08	-0.0213442
216	0x3c3bad42	0.011454882
217	0xbd387f46	-0.045043252
218	0x3d3f7f05	0.046751995
219	0xbd63f553	-0.05565388
220	0xbd678297	-0.056521025
221	0xbd5bffa5	-0.0537106
222	0xbd8ba89c	-0.06819269
223	0x3ba6091b	0.0050670034
224	0xbd5b1798	-0.053489298
225	0xbb0ca832	-0.0021462557
226	0xbd516624	-0.0511228
227	0xbd8f9aee	-0.07011972
228	0xbd9785c3	-0.0739856
229	0x3caa0f97	0.020759387
230	0x3bcd1957	0.0062591243
231	0x3c8d0d74	0.017218329
232	0xbd4b393e	-0.049615137
233	0x3d68bc80	0.056820393
234	0xbd727ae7	-0.05919924
235	0xbb78e372	-0.0037977365
236	0xbc882b24	-0.016622134
237	0xbceff827	-0.029293133
238	0xbd2c58e2	-0.042076953
239	0x3c31628c	0.010826718
240	0xbbb63048	-0.005559955
241	0xbc470409	-0.012146958
242	0xbd7014c0	-0.05861354
243	0xbc802071	-0.01564047
244	0xbb93691a	-0.004498613
245	0x3cdd4bbb	0.02701365
246	0xbc46a7f9	-0.012125009
247	0xbd22dd9b	-0.03976212
248	0x3cef2cf2	0.029196236
249	0xbd875916	-0.06608789
250	0xbcb48119	-0.022034215
251	0xbd718736	-0.058966838
252	0xbd771c80	-0.060329914
253	0xbcf54ae6	-0.02994294
254	0xbcdc0518	-0.026857898
255	0xbcae3507	-0.02126552

features.2.bn.running_var f4 [64]
0	0x40f5c50e	7.6803045
1	0x4146f78e	12.435438
2	0x417ad5d8	15.677208
3	0x41afc147	21.969374
4	0x40e3157e	7.0963736
5	0x4170eb56	15.057455
6	0x40c3da17	6.1203723
7	0x4133f599	11.24746
8	0x410ccb01	8.7995615
9	0x416b9a2b	14.725139
10	0x41c75d45	24.920542
11	0x415f5146	13.957342
12	0x41840314	16.501503
13	0x4116f18f	9.433974
14	0x41a86802	21.050785
15	0x41bd482f	23.660246
16	0x40419453	3.024678
17	0x41e19650	28.198395
18	0x41903e78	18.030502
19	0x413b99a0	11.725006
20	0x41326d18	11.151634
21	0x40c8490f	6.2589183
22	0x41617f50	14.093582
23	0x41b726cd	22.893946
24	0x40b9c05d	5.804732
25	0x41f95d61	31.170595
26	0x41c0b4e8	24.088333
27	0x41633e10	14.202652
28	0x40cc0c75	6.3765206
29	0x41dc8b1d	27.567926
30	0x414a661e	12.649931
31	0x41ccd412	25.60355
32	0x4198803c	19.062614
33	0x40ac22c5	5.3792443
34	0x41adb56b	21.713583
35	0x418d770d	17.68313
36	0x411f2ca7	9.948401
37	0x41bd9907	23.69972
38	0x4199eb99	19.240038
39	0x421a781c	38.617294
40	0x4141548f	12.083144
41	0x420bba12	34.93171
42	0x4128c315	10.547627
43	0x416ea24f	14.914626
44	0x41f43fa0	30.531067
45	0x41c01b3d	24.0133
46	0x411958aa	9.5841465
47	0x409d1f6b	4.910085
48	0x41097eb6	8.593435
49	0x412ee30c	10.930431
50	0x40b88ced	5.767203
51	0x41a91dce	21.139553
52	0x41440f63	12.2537565
53	0x412f4bdb	10.956019
54	0x40cd2861	6.411179
55	0x41a9cfaa	21.226398
56	0x4174c5af	15.298263
57	0x41e6e353	28.860998
58	0x41d458c2	26.543339
59	0x411ab9a4	9.670322
60	0x4005ceda	2.0907502
61	0x41aece69	21.850786
62	0x41ac1775	21.511454
63	0x410cca36	8.799368

features.2.bn.bias f4 [64]
0	0x3c592f40	0.013255894
1	0x3c920523	0.017824715
2	0x3d2a2b47	0.04154518
3	0x3c4d0b76	0.0125149395
4	0x3d27ddbd	0.04098295
5	0x3bc9e776	0.0061616255
6	0xbd4e9bd3	-0.050441574
7	0x3cab26a3	0.020892447
8	0xbb5caf9b	-0.0033674005
9	0x3b39bd0d	0.0028341443
10	0x3c219435	0.0098619955
11	0x3cf98d0d	0.030462766
12	0xbbb55628	-0.0055339523
13	0x3d2041cb	0.039125245
14	0xbd286064	-0.04110755
15	0x3b631f13	0.0034655973
16	0xbbc36ddf	-0.0059640254
17	0xbc002dd3	-0.007823425
18	0x39c87238	0.00038232072
19	0xbc9c2c6a	-0.019064147
20	0xbc0776ba	-0.008268053
21	0xbb010d0f	-0.0019691621
22	0xbb893866	-0.0041876314
23	0x3d475268	0.048662573
24	0x3bef4409	0.0073018116
25	0xbca3689c	-0.019947343
26	0xbca8e0b5	-0.020614961
27	0xbcb88268	-0.02252312
28	0x3c1e8e67	0.009677506
29	0x3c036aab	0.008021037
30	0x3d561923	0.052270066
31	0x3bfb91b4	0.0076772813
32	0x3c4221e9	0.011848905
33	0x3ce4632a	0.027879316
34	0x3be9d7ca	0.0071363198
35	0xba14ebdb	-0.0005680897
36	0x3d0ffd42	0.035153635
37	0xbc3fff49	-0.01171858
38	0x3c914310	0.017732173
39	0xbcd16149	-0.025559084
40	0x3ce76889	0.028248088
41	0x3c00ac8b	0.007853637
42	0x3cebb81f	0.02877432
43	0x3cdeb31c	0.027185015
44	0xbd035238	-0.03206083
45	0xbb1472da	-0.0022651465
46	0x3d0e79cb	0.03478412
47	0xbcae91ef	-0.021309821
48	0x3c42226e	0.011849029
49	0xbd7b5e17	-0.061369028
50	0x3ab8af57	0.0014090341
51	0xbca691ee	-0.020333257
52	0xbcdd1170	-0.026985854
53	0x3bf88f45	0.0075854384
54	0xbcf06132	-0.029343221
55	0x3d27c0a5	0.040955205
56	0xbc9ff311	-0.019525083
57	0x3cde3307	0.027123941
58	0x3c22219c	0.009895708
59	0xbbb7b4ae	-0.0056062555
60	0xbd0547ef	-0.032539304
61	0x3ce51987	0.027966274
62	0xbaf1580a	-0.0018413079
63	0x3bbd093a	0.005768922

predictor.0.bias f4 [128]
0	0x3bb0a2a6	0.005390483
1	0xbc73fe28	-0.014892139
2	0x3e1064db	0.14100973
3	0xbcbd6b46	-0.023122441
4	0xbdc3e0ad	-0.09564338
5	0x3c8f7a02	0.017514233
6	0x3a20f200	0.00061395764
7	0xbd54abf6	-0.051921807
8	0x3d474f2b	0.048659485
9	0xbd2caaec	-0.04215519
10	0x3d47e5e3	0.04880322
11	0x3c9d4cd8	0.019201681
12	0x3d636b50	0.055522263
13	0x3d0d384f	0.03447753
14	0xbda3583c	-0.07975814
15	0x3d3da054	0.04629548
16	0x3c18c70c	0.0093248
17	0x3cbea1cb	0.023270508
18	0x3d8b5fc1	0.06805373
19	0xbc324222	-0.010880025
20	0x3e03cf69	0.1287209
21	0x3db95b5c	0.090506285
22	0xbd31bcdf	-0.043393012
23	0x3db53b7e	0.08849238
24	0x3d8e7da0	0.06957555
25	0x3dbaa629	0.09113724
26	0x3d0a1000	0.033706665
27	0x3d6e0fa4	0.058120385
28	0xbd0cde31	-0.034391586
29	0x3d802d2e	0.06258617
30	0x3d8a87b2	0.06764163
31	0xbd2bca84	-0.04194118
32	0x3d646a07	0.055765178
33	0xbdd6d6c1	-0.1049018
34	0x3db454db	0.088052474
35	0x3dfcd776	0.123457834
36	0x3c6ceef0	0.014461264
37	0xbd075cd8	-0.033047527
38	0xbdc21841	-0.09477282
39	0x3d8f061b	0.069835864
40	0xbd9bca2d	-0.07606921
41	0x3b934d50	0.0044953004
42	0x3c29b396	0.010357758
43	0x3cb1b629	0.021693306
44	0xbde5b9a1	-0.112170465
45	0x3d570c1b	0.05250178
46	0x3c4d6bb3	0.0125378845
47	0x3d9f8ed9	0.07790918
48	0x3d75fc6e	0.06005519
49	0xbd04aa69	-0.03238908
50	0x3d5eb354	0.05437024
51	0xbcbd09f2	-0.023076031
52	0x3d5661ef	0.05233949
53	0x3cde81fc	0.02716159
54	0xbd22880c	-0.039680526
55	0xbdc5b55c	-0.09653732
56	0x3db60d33	0.08889236
57	0x3dba46c6	0.0909553
58	0x3dad3444	0.084572345
59	0xbd9fac1a	-0.07796498
60	0x3cbf3ba4	0.023343869
61	0xbd753b42	-0.059870966
62	0x3dab8187	0.08374315
63	0x3b8c1021	0.0042743837
64	0xbc84b0d9	-0.016197609
65	0xbdcaceb5	-0.099027075
66	0x3dc00de7	0.09377652
67	0x3d0dec2f	0.03464907
68	0x3ce585b9	0.028017865
69	0x3be78cea	0.007066359
70	0x3ce9510a	0.028481025
71	0x3d4eddbf	0.050504442
72	0x3da9891f	0.08278107
73	0xbd18daf4	-0.037318185
74	0xbdcd99a3	-0.100390695
75	0x3c47f3fe	0.012204168
76	0x3dadd180	0.084872246
77	0x3d37b44a	0.04484967
78	0x3c87bf92	0.01657084
79	0xbd97a308	-0.074041426
80	0xba478461	-0.00076109736
81	0xbd4179d7	-0.047235336
82	0xbcf8a119	-0.030350255
83	0x3d8df7b8	0.06932014
84	0xbd9e0edf	-0.0771768
85	0xbca9f99f	-0.020748911
86	0x3d1d86c4	0.0384586
87	0x3d11b848	0.035576135
88	0xbd9b2030	-0.07574499
89	0x3e06caab	0.13163249
90	0x3d583e0e	0.052793555
91	0x3bbef189	0.005827133
92	0x3d2834a3	0.041065823
93	0xbccad603	-0.024760252
94	0xbce75d0d	-0.028242612
95	0x3d741ff1	0.059600774
96	0xbdb94796	-0.09046857
97	0xbd4cab7a	-0.04996822
98	0x3b90f83a	0.004424122
99	0xbc8d23e5	-0.01722903
100	0x3d58496a	0.052804388
101	0x3bf66ee1	0.007520542
102	0xbd86084c	-0.06544551
103	0x3c595a20	0.013266116
104	0xbddd4c4e	-0.108055696
105	0xbd605083	-0.054764282
106	0x3e024ddc	0.12725013
107	0x3daafa1b	0.08348485
108	0x3d6d6cd5	0.05796512
109	0x3cb328c1	0.021870019
110	0x3d61295e	0.05497109
111	0xbd5642b1	-0.052309696
112	0xbc07624e	-0.008263184
113	0x3deb7816	0.11497514
114	0xbd5dedef	-0.05418199
115	0xbbf7b707	-0.0075596604
116	0x3d339763	0.043845546
117	0x3daa069f	0.08302044
118	0x3dd5c4dc	0.104379386
119	0xbd819fe7	-0.06329327
120	0x3c0da7d2	0.0086459685
121	0x3df83b02	0.1212063
122	0x3c8b69c4	0.017018206
123	0xbde68eaf	-0.112576835
124	0x3c3837a9	0.011243739
125	0x3ceb80c1	0.028747918
126	0x3d198778	0.03748271
127	0xbd94f520	-0.072733164

features.0.conv.weight f4 [32, 3, 3, 1]
0	0x3ebbd0a8	0.3668263
1	0xbe95da29	-0.29268005
2	0x3e88a189	0.26685742
3	0xbe92805a	-0.2861355
4	0xbe88df2d	-0.2673277
5	0x3d214c7e	0.03937959
6	0x3e938b53	0.28817233
7	0x3e2a20d4	0.16614085
8	0x3d0a38d3	0.033745598
9	0xbe76afc0	-0.24090481
10	0xbe2e8315	-0.17042191
11	0xbe17be9f	-0.1481881
12	0xbd2ec74c	-0.042670533
13	0xbe965012	-0.29357964
14	0xbd90e3a2	-0.070746675
15	0x3d1acfab	0.037795704
16	0xbe3ff9e5	-0.18747671
17	0xbd980542	-0.07422878
18	0x3d59168b	0.053000014
19	0xbe0d895d	-0.13821931
20	0x3e288645	0.1645747
21	0xbd8bb5ba	-0.06821771
22	0xbe976b42	-0.2957402
23	0x3e719959	0.23593654
24	0x3e4eb0d7	0.20184647
25	0x3e1cb145	0.15301998
26	0x3e19b182	0.1500912
27	0xbeac521b	-0.33656392
28	0xbeb4674d	-0.35235062
29	0x3dd712e8	0.10501653
30	0xbe708f29	-0.23492111
31	0xbe4add9a	-0.19811097
32	0xbd30c75e	-0.04315888
33	0x3d068aec	0.03284733
34	0x3e009eb3	0.12560539
35	0xbcb08c6d	-0.021551335
36	0xbe9ab1d2	-0.3021379
37	0x3e4171eb	0.18891113
38	0x3d46f75b	0.04857574
39	0x3ea87689	0.32902935
40	0xbe8c9826	-0.2745983
41	0xbe3128a2	-0.17300656
42	0x3e9d7e3a	0.30760366
43	0x3eb1eb14	0.34749663
44	0xbe542319	-0.20716514
45	0xbdf88869	-0.12135393
46	0x3e143f16	0.1447719
47	0xbe41b856	-0.18917975
48	0xbdb220c0	-0.08697653
49	0x3e85b5d1	0.26115277
50	0x3ea4db8f	0.3219876
51	0xbc556393	-0.013024229
52	0xbd069725	-0.032858986
53	0x3e95b119	0.29236677
54	0xbeb3ff7d	-0.3515586
55	0xbe718241	-0.23584844
56	0xbd7fa5e6	-0.062414072
57	0xbe85dc8a	-0.2614482
58	0xbeb1bb5f	-0.34713265
59	0xbe0c6fd1	-0.1371453
60	0x3e81f632	0.25383145
61	0x3e3d62c6	0.1849471
62	0xbd93402a	-0.07189973
63	0xbea4db59	-0.321986
64	0xbe98af32	-0.29821163
65	0x3e381883	0.179781
66	0x3e58c495	0.2116874
67	0x3bd01f58	0.0063513927
68	0x3eb3f9c4	0.35151494
69	0x3eaf9b91	0.34298375
70	0xbe5b143a	-0.21394435
71	0x3daaa04b	0.08331355
72	0xbd3d8155	-0.04626592
73	0xbe0347de	-0.12820384
74	0xbc377d33	-0.011199283
75	0x3e601610	0.21883416
76	0xbdacdf3f	-0.08441018
77	0x3e2b6971	0.16739441
78	0xbec3e2b6	-0.38258904
79	0xbe5d9336	-0.21638188
80	0xbd29aaa4	-0.0414225
81	0x3e72d086	0.23712358
82	0x3ce325ea	0.02772804
83	0xbe3fb44e	-0.18721125
84	0x3df9699a	0.12178345
85	0x3e7f3ded	0.24925967
86	0xbe374836	-0.1789864
87	0xbe0ec7eb	-0.1394345
88	0xbe92732d	-0.28603497
89	0xbe60d760	-0.21957159
90	0xbe30349f	-0.17207573
91	0x3dcdec8f	0.100548856
92	0xbeb7ccd4	-0.3589846
93	0x3dff32a5	0.124608316
94	0x3e830f6d	0.25597706
95	0xbe0644a4	-0.13112122
96	0x3df6d0fd	0.1205158
97	0xbea5f8b5	-0.3241631
98	0xbea8092c	-0.32819498
99	0xbe313197	-0.17304073
100	0x3e89c952	0.26911408
101	0xbdc326fc	-0.0952892
102	0x3ebaa79f	0.3645601
103	0xbe10bc0b	-0.14134233
104	0xbe5673d8	-0.20942628
105	0x3eacec2f	0.33773944
106	0x3e97e79d	0.29668894
107	0xbe124da3	-0.14287429
108	0x3dddf461	0.10837627
109	0x3d913001	0.07089234
110	0xbd54110b	-0.051774066
111	0xbe87d246	-0.26527613
112	0x3e011133	0.12604217
113	0x3e013f04	0.12621695
114	0xbe64ec99	-0.2235588
115	0xbe3159b9	-0.17319383
116	0xbc1b5e75	-0.0094829695
117	0x3ea52b1f	0.3225946
118	0xbe1988c8	-0.14993584
119	0x3e1b8dbb	0.15190785
120	0x3e96d640	0.29460335
121	0xbd0ab230	-0.03386134
122	0x3e149faf	0.1451404
123	0x3e8ec831	0.2788711
124	0xbe11f653	-0.14254121
125	0xbea63b43	-0.32467088
126	0x3e8fde99	0.28099516
127	0xbd7b094e	-0.06128817
128	0x3e9e7295	0.30946794
129	0x3e8cf446	0.27530116
130	0xbd2ab205	-0.04167368
131	0xbcd1e2fc	-0.02562093
132	0xbd9801f5	-0.07422248
133	0xbe1a214e	-0.15051767
134	0xbc71ea04	-0.014765266
135	0xbe032f0b	-0.12810914
136	0x3e930d32	0.28721005
137	0xbe96143a	-0.29312307
138	0xbdfaaab7	-0.122395925
139	0xbe01974f	-0.12655376
140	0x3d481df6	0.048856698
141	0xbe56bc4e	-0.2097027
142	0x3da4bd18	0.08043879
143	0x3e799cb5	0.24376185
144	0x3cb9fe86	0.022704374
145	0x3e9a7b06	0.30171984
146	0x3e80804c	0.25097883
147	0xbdbb8de3	-0.09157922
148	0x3d8f4805	0.069961585
149	0xbeb11d36	-0.345926
150	0x3d45eca6	0.04832139
151	0x3e0dde6b	0.13854377
152	0x3e81725a	0.25282556
153	0x3e845ac5	0.25850502
154	0xbe6b5b02	-0.22983935
155	0xbeb7063e	-0.3574695
156	0xbdf67257	-0.12033527
157	0xbeae4462	-0.34036547
158	0xbcee4369	-0.029084878
159	0x3d9018c0	0.07035971
160	0xbe982034	-0.2971207
161	0x3e8db859	0.2767971
162	0x3d827ff3	0.063720606
163	0xbe5f5759	-0.21810664
164	0xbdb3f1af	-0.08786332
165	0xbe1e95a2	-0.15486768
166	0xbcc695c0	-0.024241328
167	0xbc94cbfe	-0.018163677
168	0x3e7bacef	0.24577688
169	0xbe3fb248	-0.18720353
170	0xbe228603	-0.15871434
171	0xbdd90664	-0.10596922
172	0x3e2bd363	0.16779856
173	0x3d78e790	0.06076771
174	0xbe0e7d9d	-0.13915105
175	0x3e8a1453	0.2696863
176	0xbe06cf94	-0.13165122
177	0xbd82fa60	-0.063954115
178	0xbe24e7db	-0.16104071
179	0xbe2ecd87	-0.1707059
180	0x3dd5f091	0.10446275
181	0x3ca326df	0.019915996
182	0xbeb4b5e4	-0.35295022
183	0x3e7b1946	0.2452136
184	0xbe924c4d	-0.28573838
185	0xbe5ae765	-0.21377333
186	0xbe3716f4	-0.1787985
187	0x3d1f0e32	0.038831897
188	0x3e347765	0.1762367
189	0x3e914f90	0.28381014
190	0x3e510040	0.20410252
191	0xbe80271c	-0.25029838
192	0x3e8a4dfa	0.27012616
193	0x3e9e7dd8	0.30955386
194	0x3d2c8a71	0.042124216
195	0xbdd9ebfd	-0.10640714
196	0x3de9de22	0.114193216
197	0x3e43ae5c	0.19109482
198	0x3e6d88db	0.23196737
199	0x3e655506	0.22395715
200	0xbe2be359	-0.16785945
201	0xbe8b3b2a	-0.27193576
202	0xbc17cfc2	-0.009265842
203	0xbe926d1c	-0.2859887
204	0x3ea090fd	0.31360617
205	0x3d8c7149	0.06857545
206	0x3e9baf98	0.30407405
207	0x3e6271e6	0.22113761
208	0x3d218001	0.039428715
209	0x3e8bf08a	0.27331954
210	0x3e836090	0.2565961
211	0xbea11bfb	-0.3146666
212	0xbc67c4ab	-0.01414601
213	0xbd9f648e	-0.07782851
214	0x3e373681	0.17891885
215	0xbddb0ad8	-0.10695428
216	0xbe848b4e	-0.2588753
217	0xbe89ace6	-0.26889724
218	0xbe8fc570	-0.2808032
219	0xbc2b7e98	-0.010467194
220	0xbe9421a1	-0.28931907
221	0x3e9e1160	0.3087263
222	0x3e8b27f6	0.27178925
223	0xbdf21bac	-0.11821684
224	0x3e20c18d	0.15698834
225	0x3e754771	0.23953034
226	0x3e6b346d	0.22969218
227	0xbe442780	-0.19155693
228	0xbe5af9f3	-0.2138441
229	0x3e7f0d55	0.2490743
230	0xbe9b1593	-0.30289897
231	0xbe195b0e	-0.14976141
232	0xbcd7e0f9	-0.026352393
233	0xbe962abd	-0.29329482
234	0xbe8da820	-0.27667332
235	0xbda80740	-0.08204508
236	0x3e2cdfcf	0.16882251
237	0xbd43821c	-0.047731504
238	0x3e81eca7	0.25375864
239	0x3d9b0ed4	0.075711876
240	0x3e384311	0.17994334
241	0x3e06049f	0.130877
242	0xbe9983df	-0.29983422
243	0xbe85c22e	-0.2612471
244	0x3e23d41e	0.15998885
245	0xbe86557e	-0.262371
246	0xbbd83b5c	-0.006598873
247	0x3de61aec	0.11235604
248	0x3bac7be1	0.005263791
249	0x3e11c623	0.1423574
250	0xbe1166b6	-0.14199337
251	0xbdf9c72f	-0.121961944
252	0xbd17d462	-0.03706778
253	0xbe8f85b7	-0.28031704
254	0x3db83a81	0.08995534
255	0x3e35d421	0.17756702

features.2.bn.running_mean f4 [64]
0	0xc067d0ae	-3.6221118
1	0xc0a0d6a0	-5.0261993
2	0x3f7efea4	0.996073
3	0xc026447d	-2.5979302
4	0xc03e510f	-2.9736974
5	0xc08e8570	-4.4537888
6	0xc02f3711	-2.737736
7	0x401b20ab	2.423869
8	0x3fd6d0aa	1.6782429
9	0x4038640c	2.8811064
10	0x3f8b102b	1.0864309
11	0xbe134918	-0.14383352
12	0xc019bfae	-2.4023242
13	0xc0084231	-2.12904
14	0x3fab3609	1.3375865
15	0x3f71b160	0.9441128
16	0x40076223	2.1153648
17	0x3fc01493	1.5006279
18	0x404f2099	3.2363646
19	0xbfad60b0	-1.3545132
20	0xc01478e4	-2.3198786
21	0xc042c961	-3.0435412
22	0xc08ed7e5	-4.4638543
23	0x3f693fad	0.91112787
24	0xc062e961	-3.5454943
25	0xc0879f75	-4.238215
26	0x3e989333	0.29799804
27	0x405ffb50	3.499714
28	0x3f67e21b	0.90579385
29	0x3ffbd5f9	1.9674674
30	0xc054ed37	-3.3269784
31	0x3f1990a4	0.5998633
32	0x3f44b09a	0.7683197
33	0xc0131476	-2.2981238
34	0x3ee7ab6e	0.45247978
35	0x3fbfd1af	1.4985865
36	0xc0874075	-4.2266183
37	0xbffd0e3e	-1.9769971
38	0xc047d3b6	-3.1222968
39	0xc057c873	-3.3716094
40	0xbd72df1c	-0.059294805
41	0xc05f3d04	-3.488099
42	0xc064134a	-3.5636773
43	0xbcb39501	-0.021921637
44	0x4031eecc	2.7802
45	0xc059b216	-3.4014945
46	0x3efb0ae3	0.49031743
47	0xc05065ed	-3.256221
48	0x4001758e	2.0228
49	0xc017f1e8	-2.3741398
50	0x3fecc592	1.8497794
51	0xbeb2a58f	-0.34891936
52	0xc09211a7	-4.564655
53	0xc047462f	-3.1136587
54	0xc038e85c	-2.889182
55	0xbf801176	-1.0005329
56	0x4045e1f2	3.0919156
57	0x3fc9bb04	1.5760198
58	0x4041bea2	3.0272603
59	0xc01f2d5d	-2.4871438
60	0x3fbc5a78	1.4715109
61	0xbf23878b	-0.638787
62	0xbf714924	-0.9425223
63	0x3f33f818	0.70300436

features.2.bn.weight f4 [64]
0	0x3f7bc1a3	0.9834234
1	0x3f80f7fe	1.0075681
2	0x3f837ef5	1.0273119
3	0x3f7c42f6	0.98539674
4	0x3f82555c	1.01823
5	0x3f82444d	1.0177094
6	0x3f6f8d59	0.93575054
7	0x3f88acd6	1.0677745
8	0x3f81efac	1.0151267
9	0x3f805b0b	1.0027784
10	0x3f78248e	0.9693078
11	0x3f80022e	1.0000665
12	0x3f813957	1.0095624
13	0x3f7b3836	0.98132646
14	0x3f81537d	1.0103604
15	0x3f8370e3	1.0268825
16	0x3f821789	1.0163432
17	0x3f84152a	1.0318959
18	0x3f8b3e90	1.0878468
19	0x3f787168	0.97048044
20	0x3f756c54	0.9586842
21	0x3f74ea42	0.9566995
22	0x3f8022a0	1.0010567
23	0x3f87fdf7	1.0624379
24	0x3f8541cb	1.0410703
25	0x3f79a8e3	0.97523326
26	0x3f784e82	0.96994793
27	0x3f82a8d5	1.0207773
28	0x3f851988	1.0398417
29	0x3f7dbd72	0.99117196
30	0x3f81c14f	1.0137118
31	0x3f7b426d	0.9814823
32	0x3f83139a	1.0240357
33	0x3f82a62b	1.020696
34	0x3f7dd9d3	0.991605
35	0x3f7b5450	0.98175526
36	0x3f816539	1.0109016
37	0x3f7268d3	0.946912
38	0x3f81e194	1.0146966
39	0x3f711c6d	0.94184
40	0x3f8045e8	1.0021334
41	0x3f7b96a7	0.9827675
42	0x3f7be732	0.9839965
43	0x3f836581	1.0265352
44	0x3f82bbd0	1.0213566
45	0x3f8359a5	1.0261732
46	0x3f821fbe	1.0165937
47	0x3f828a36	1.0198429
48	0x3f813f53	1.009745
49	0x3f6aba16	0.91690195
50	0x3f81ede3	1.0150722
51	0x3f8008b0	1.0002651
52	0x3f7b91f3	0.98269576
53	0x3f7ff6c1	0.9998589
54	0x3f78731a	0.9705063
55	0x3f8032b6	1.0015476
56	0x3f838d7b	1.0277551
57	0x3f800b41	1.0003434
58	0x3f7d7046	0.9899944
59	0x3f71a7ef	0.9439687
60	0x3f7cc5c5	0.9873927
61	0x3f80b464	1.0055051
62	0x3f78c679	0.97177845
63	0x3f81608a	1.0107586

features.2.conv.bias f4 [64]
0	0x398737b8	0.0002579072
1	0x39a8d507	0.00032202175
2	0x3958fd86	0.0002069381
3	0x38e49c88	0.000109010434
4	0x3a69810e	0.0008907475
5	0x3a13ef66	0.0005643278
6	0x387bd8c8	6.0044957e-05
7	0xb8ba52c8	-8.88459e-05
8	0xb99235d4	-0.00027887395
9	0x398b57b4	0.0002657749
10	0x360d88d5	2.1090284e-06
11	0xba0e1048	-0.0005419296
12	0xb9adb08c	-0.0003312867
13	0xb79b1595	-1.848749e-05
14	0x3937554d	0.00017484017
15	0x362c2367	2.5650604e-06
16	0xba1bdebe	-0.0005945972
17	0xba5e751f	-0.00084860803
18	0xb93c632b	-0.0001796602
19	0x399f1dea	0.0003034913
20	0xb60212c1	-1.9382426e-06
21	0x399abeb5	0.00029515257
22	0x39db00ba	0.00041771476
23	0x39ca2584	0.00038556394
24	0x3a4c6a03	0.00077977794
25	0x39b78d72	0.00035009865
26	0xb9039c24	-0.000125513
27	0xb8927bd4	-6.984887e-05
28	0xba7272da	-0.00092486816
29	0xb9d97a34	-0.00041480514
30	0x39d2a2be	0.00040175574
31	0xb804bfbe	-3.1649826e-05
32	0x3917abe0	0.0001446451
33	0x39e90bec	0.00044450106
34	0x394e4f3c	0.00019675208
35	0x3a181d0d	0.0005802669
36	0x38b65d40	8.6958054e-05
37	0xb9d1f1dd	-0.0004004379
38	0x3939d5fc	0.0001772269
39	0xb8f5b20d	-0.00011715675
40	0x39ce8f92	0.0003939835
41	0x39283d42	0.00016044549
42	0x39e12296	0.00042941113
43	0xb82842e9	-4.0116636e-05
44	0x3a2fdac9	0.0006708322
45	0x393f1336	0.00018222336
46	0xb8c1cd75	-9.2412265e-05
47	0xba3626e1	-0.00069485424
48	0x39b0f8b4	0.00033754634
49	0xb8f7f680	-0.00011823792
50	0x39a38cee	0.00031194784
51	0x393c96a8	0.00017985201
52	0xb969662f	-0.00022258678
53	0xb83799d2	-4.3773856e-05
54	0x3a1a2a40	0.00058809295
55	0x39cd120d	0.00039114096
56	0xb9f1b56a	-0.00046102266
57	0xb8592de2	-5.1779563e-05
58	0xb86ac0a6	-5.5969365e-05
59	0x39ee18c1	0.0004541334
60	0xba5e17af	-0.0008472157
61	0x37d152e8	2.4953348e-05
62	0xbab1651b	-0.001353416
63	0xb9103a06	-0.00013754526

predictor.3.weight f4 [3, 128]
0	0xbb4b5be0	-0.0031030104
1	0xbbe762a9	-0.0070613218
2	0xbd269306	-0.040667556
3	0x3ba133b1	0.004919492
4	0x3d4e9569	0.050435457
5	0x3d8019ff	0.06254958
6	0xbd5ee27b	-0.054415207
7	0xbd654d49	-0.055981908
8	0xbd13366b	-0.03594057
9	0xbd51b3b5	-0.051196773
10	0x3ded52db	0.11588069
11	0x3df11511	0.11771596
12	0xbcddbcc6	-0.027067553
13	0x3c428811	0.011873261
14	0xbd2294b8	-0.03969261
15	0xbd123453	-0.03569443
16	0xbd0fd2da	-0.035113193
17	0x3afefe4f	0.0019454452
18	0xbd02ba49	-0.031915937
19	0xbd8666a9	-0.065625496
20	0xbd3b61fd	-0.045747746
21	0xbcf686c3	-0.030093556
22	0x3d367ca7	0.04455247
23	0x3d1ba7cd	0.038001824
24	0x3c1dc93d	0.0096304985
25	0x3ca13f3c	0.019683473
26	0x3d5817a0	0.052756906
27	0xbd05aef5	-0.032637555
28	0xbd09c4cb	-0.033634942
29	0x3cf783db	0.03021424
30	0xbc07c05e	-0.00828561
31	0x3d86dc48	0.06584984
32	0x3c6861e0	0.0141834915
33	0x3d99fc09	0.07518775
34	0xbc8d024b	-0.017213007
35	0x3c749746	0.0149286445
36	0xbdb453b5	-0.08805028
37	0xbcd2dbab	-0.025739511
38	0x3dcf8dee	0.10134493
39	0x3cce5175	0.025185326
40	0x3d811080	0.06301975
41	0x3d1e3cce	0.038632207
42	0xbccf7cac	-0.025328003
43	0xbc924846	-0.017856728
44	0xbd9fcfce	-0.078033075
45	0x3d841450	0.06449187
46	0xbccf6df5	-0.025320986
47	0xbd86e703	-0.06587031
48	0xbd014d2d	-0.03156774
49	0xbcd9f332	-0.026605222
50	0xbd3c1aff	-0.045924183
51	0xbd517d2e	-0.05114477
52	0x3c169a0e	0.009192003
53	0xbc110548	-0.008851357
54	0xbd67a1ce	-0.056550793
55	0x3df9e99d	0.12202761
56	0x3bc820af	0.006107412
57	0xbcb7fee2	-0.022460405
58	0x3d2bf7cd	0.041984368
59	0x3d866901	0.06562997
60	0xbd5baa42	-0.053629167
61	0xbcb3687b	-0.021900406
62	0xbd2567cf	-0.040382203
63	0xbd7986db	-0.060919624
64	0xbc5246a7	-0.012834228
65	0x3d7562a1	0.059908513
66	0x3c498b3e	0.012301264
67	0x3ca03f98	0.019561574
68	0x3d2ca9e2	0.0421542
69	0xbd6e9f9c	-0.058257684
70	0xbd92a8aa	-0.07161076
71	0x3c924ecc	0.017859839
72	0x3d37f194	0.04490812
73	0xbd202732	-0.03909988
74	0xbc5f7f66	-0.013641214
75	0x3d71aa94	0.059000567
76	0xbd88fbe7	-0.066886716
77	0x3d61feb6	0.055174552
78	0xbd31886e	-0.043343
79	0xbdd518a9	-0.10405094
80	0x3d5cf2c8	0.05394247
81	0xbd46ed97	-0.048566427
82	0x3d856a68	0.06514436
83	0x3d4f880e	0.05066686
84	0xbc232fa0	-0.009960085
85	0x3b185cc8	0.0023248661
86	0xbc41ecc3	-0.011836234
87	0x3c505e0f	0.012717738
88	0x3d9911ba	0.07474084
89	0x3d285c02	0.04110337
90	0x3df7bc61	0.12096477
91	0xbddb55fb	-0.10709759
92	0x3d7e12f9	0.062029812
93	0x3d665017	0.056228723
94	0x3d8da54e	0.06916295
95	0x3d8f0bff	0.0698471
96	0x3cef94af	0.029245703
97	0xbc7b07cc	-0.015321683
98	0xbc61b2d9	-0.013775551
99	0x3dab1b78	0.083548486
100	0xbd1a68d9	-0.037697647
101	0x3df854fc	0.121255845
102	0x3d93d685	0.07218651
103	0x3c8bdbfd	0.017072672
104	0x3c59afb6	0.013286522
105	0x3ca01ef4	0.01954601
106	0x3c0f809b	0.008758689
107	0x3d59317b	0.053025704
108	0x3d237274	0.039904073
109	0x3d54f0b8	0.05198738
110	0x3d509dc3	0.050931703
111	0x3c93e959	0.018055605
112	0x3d4ff2e1	0.050768737
113	0xbd4a2fdd	-0.049362052
114	0xbc3855b5	-0.011250903
115	0x3bf3a601	0.0074355607
116	0xbdef4c98	-0.11684531
117	0xbd044efe	-0.032301895
118	0xbc89efd3	-0.01683799
119	0xbcb92d6c	-0.022604667
120	0x3d4992f3	0.049212407
121	0x3cb0278b	0.02150323
122	0xbc9242b8	-0.01785408
123	0x3bc65806	0.0060529737
124	0xbd276a73	-0.040873002
125	0xbd8ad2c7	-0.06778484
126	0xbd140d3b	-0.03614543
127	0xbcf040d5	-0.02932779
128	0x3bcbb014	0.0062160585
129	0x3d831863	0.06401136
130	0x3d06271b	0.032752138
131	0x3c871f4a	0.016494412
132	0xbba856ff	-0.005137324
133	0x3c26d5e2	0.01018283
134	0x3d9953bb	0.074866734
135	0x3d9e4733	0.07728424
136	0xbcbe61d7	-0.023240013
137	0xbc0f4e94	-0.008746762
138	0xbcdd93f8	-0.027048096
139	0x3d9cf2ae	0.07663475
140	0xbd9b32c7	-0.075780444
141	0x3d8a4c96	0.06752889
142	0x3d8045d9	0.062633224
143	0xbd8366bb	-0.06416079
144	0xbcce3587	-0.025172008
145	0x3c04d89b	0.008108283
146	0xbcee1cc3	-0.029066449
147	0xbcc8978d	-0.024486328
148	0x3cfcbbc7	0.030851258
149	0xbc1e82f0	-0.009674773
150	0xbd265696	-0.04060992
151	0x3d101fa9	0.035186443
152	0x3db14f23	0.08657672
153	0x3d18ab3a	0.03727267
154	0x3c8f5cdf	0.01750034
155	0x3d604b38	0.054759234
156	0xbd31bb1d	-0.043391336
157	0x3c257f58	0.010101162
158	0x3c5bce35	0.013415863
159	0x3d5f8ccd	0.054577637
160	0x3d5051f9	0.050859425
161	0x3d0ea1f7	0.03482243
162	0x3cc9dbf7	0.02464102
163	0x3d41adae	0.047284774
164	0x3d8653ff	0.0655899
165	0x3d9e7f06	0.077390715
166	0xbd21d329	-0.03950802
167	0x3d5c9165	0.053849597
168	0x3db7964b	0.08964213
169	0xbd9d69d7	-0.07686203
170	0xbb1ffbe3	-0.002441161
171	0xbc8f2196	-0.01747207
172	0x3c0a9bcc	0.008459996
173	0x3c046ce7	0.008082605
174	0x3d810c29	0.063011475
175	0xbd344191	-0.04400784
176	0x3d780cb0	0.060558975
177	0x3d4f82b7	0.05066177
178	0xbc326f82	-0.010890843
179	0x3cb588c8	0.022159949
180	0x3c9c80c0	0.019104362
181	0x3d1c9bf9	0.038234685
182	0x3ddbe181	0.10736371
183	0x3e05ead1	0.13077857
184	0xbcfdc68c	-0.030978464
185	0x3d7fe39b	0.06247292
186	0xbd9c44d3	-0.07630315
187	0x3d6019d0	0.054712117
188	0xbd18180f	-0.03713232
189	0x3d050b97	0.032481756
190	0xbd0b6801	-0.034034733
191	0x3c15a4e1	0.0091335485
192	0xbd6a147f	-0.057148453
193	0xbd5257f2	-0.051353402
194	0x3d5a18c9	0.053246293
195	0xbd225e9d	-0.03964101
196	0x3d831908	0.06401259
197	0xbd78e454	-0.060764626
198	0x3d028b0b	0.031870883
199	0x3d837d51	0.064203866
200	0x3d3e6971	0.046487276
201	0xbc30804a	-0.010772774
202	0xbd29211c	-0.04129134
203	0x3ddf09d2	0.10890545
204	0x3d2fee01	0.042951588
205	0xbd118913	-0.035531115
206	0xbd551378	-0.05202052
207	0x3dd2ec1f	0.10298943
208	0xbce57ae3	-0.028012699
209	0xbd6d6342	-0.057955988
210	0x3da61f47	0.081114344
211	0xbd05a62f	-0.03262919
212	0xbc8a96fe	-0.016917702
213	0x39d005d0	0.00039677182
214	0x3caf7bd6	0.021421354
215	0x3e0839bc	0.13303274
216	0xbd6e3e39	-0.05816481
217	0xbbacc08c	-0.005271977
218	0x3c8214aa	0.015878994
219	0x3b15528a	0.0022784793
220	0x3d2e5738	0.042563647
221	0x3d434e1f	0.047681924
222	0xbb933bf8	-0.004493233
223	0xbda4aef1	-0.0804118
224	0x3d72e4f1	0.059300367
225	0xbb896a87	-0.0041936073
226	0xbca86aab	-0.020558676
227	0xbae71613	-0.001763048
228	0x3d816eb4	0.06319943
229	0x3dc3d782	0.09562589
230	0xbd1a45b1	-0.03766412
231	0xba91bbec	-0.0011118627
232	0xbd08d0a7	-0.03340211
233	0xbd1226ca	-0.035681523
234	0x3d825f9b	0.063658915
235	0xba0c558a	-0.00053533225
236	0xbc8acd88	-0.016943708
237	0xbc3e1d24	-0.011603627
238	0xbcf29cd3	-0.029615795
239	0x3cff0874	0.03113196
240	0x3c233d74	0.009963382
241	0x3d06820e	0.032838874
242	0x3dd1d3eb	0.10245498
243	0xbd840a67	-0.064472966
244	0xbd6767fb	-0.056495648
245	0xbd635189	-0.05549768
246	0x3cd14fd6	0.025550764
247	0x3cb45d96	0.022017282
248	0xbb3f3a28	-0.002917895
249	0x3d776b56	0.060405098
250	0x3d7dd7ec	0.061973497
251	0x3ce2d4cc	0.02768936
252	0x3d5ea1f2	0.05435366
253	0x3d971b3c	0.073782414
254	0x3db2b5e8	0.08726102
255	0xbcbd25a5	-0.02308924

features.4.bn.bias f4 [128]
0	0x3ce62aea	0.028096635
1	0xbb8496f8	-0.004046317
2	0x3ccbc5de	0.024874624
3	0x3cd37f93	0.025817668
4	0xba764d77	-0.00093956984
5	0xbb1000d5	-0.0021973152
6	0x3cebc7ae	0.028781738
7	0x3c9d154d	0.019175196
8	0xbd86b351	-0.06577171
9	0xbd8f8dfe	-0.07009505
10	0x3cf1ddce	0.02952471
11	0x3d000e8b	0.03126387
12	0x3b156f76	0.0022802032
13	0xbbeda704	-0.007252576
14	0x3a1e397d	0.0006035788
15	0xbd80cd23	-0.06289127
16	0xbd21cf84	-0.039504543
17	0xbbe30450	-0.0069280043
18	0x3d2354fd	0.039875973
19	0xbc389679	-0.011266344
20	0x3c9ad681	0.018901112
21	0xbbd5c3c2	-0.0065235803
22	0xbc37b0e5	-0.011211609
23	0x3d0f608a	0.035004176
24	0x3d2ed8f8	0.042687386
25	0x3c7121fd	0.014717576
26	0xbd20605a	-0.039154388
27	0xbd67103a	-0.05641196
28	0xbc8d0c67	-0.017217828
29	0x3c497817	0.012296698
30	0x3b7874c0	0.0037911385
31	0xbc855f7b	-0.01628088
32	0xbd2ce1b1	-0.042207424
33	0x3c8a56fe	0.016887184
34	0x3b6f5b2f	0.0036522856
35	0xbd9adb0f	-0.07561313
36	0xbd8a6d15	-0.06759087
37	0xbd2435af	-0.04009026
38	0xbb9b357e	-0.0047366014
39	0x3c037f62	0.008025976
40	0x3d01af84	0.031661525
41	0xbd01af1b	-0.031661134
42	0x3cc0b6bf	0.02352464
43	0x3c81946c	0.015817843
44	0xbb61c4eb	-0.0034449648
45	0x3cb4d944	0.022076257
46	0x3cd0132a	0.025399763
47	0x3b714409	0.0036814234
48	0x3d067f3f	0.032836195
49	0x3ac246db	0.0014822142
50	0xbc96007d	-0.01831078
51	0xbcd05caf	-0.02543482
52	0x3cc733e8	0.024316743
53	0x3d05b56c	0.03264372
54	0x3ca3a7ca	0.019977469
55	0xbb84f4c6	-0.0040574996
56	0xbdb248e6	-0.087053105
57	0x3cc00ed5	0.023444572
58	0xbcd64cef	-0.026159732
59	0xbc8977c1	-0.016780736
60	0xbc793a9f	-0.01521173
61	0xbb1da5c5	-0.0024055105
62	0xbc8272eb	-0.015923938
63	0xbc8e5b63	-0.017377561
64	0xbcabcf1e	-0.020972785
65	0x3c98bd7c	0.01864504
66	0xbd8194a8	-0.06327182
67	0x3c9ea16b	0.01936408
68	0xbd850561	-0.064951666
69	0x3d28d08f	0.041214522
70	0x3d1f1a3b	0.038843375
71	0xbd327574	-0.043569043
72	0x3cab1c65	0.020887563
73	0xbbe948bb	-0.007119266
74	0xbd6639c1	-0.056207422
75	0x3ce42523	0.02784974
76	0x3cf2666f	0.02958986
77	0x3be995ff	0.0071284766
78	0x3cc117c0	0.023570895
79	0xbd6b1b9b	-0.057399374
80	0xbcd9f37c	-0.02660536
81	0xbda3c78f	-0.07997047
82	0x3cce0dec	0.025153123
83	0xbc9f6622	-0.01945788
84	0x3d34e745	0.04416587
85	0x3ce5d996	0.028057855
86	0xbb068bc2	-0.002053008
87	0x3cc0d804	0.023540504
88	0x3d0667f8	0.032813996
89	0xbb218ead	-0.0024651692
90	0xbd23df08	-0.04000762
91	0xbd1bb679	-0.038015816
92	0x3cb1ae77	0.021689637
93	0x3cde2117	0.027115388
94	0xbcb783b2	-0.022401664
95	0xbb18e3b9	-0.0023329093
96	0x3d113ed4	0.03546031
97	0x3c7d3fca	0.015457103
98	0xbb9490f7	-0.0045338827
99	0x3d0b8af3	0.03406806
100	0x3cb9bfb1	0.022674413
101	0x3c02a107	0.007972962
102	0x3cff65cd	0.031176472
103	0x3d073630	0.03301066
104	0x3d0947b5	0.03351565
105	0xbcfeeffb	-0.031120291
106	0x3d054d4d	0.032544423
107	0x3d0f57e4	0.03499593
108	0xbd1ddd5a	-0.038541175
109	0x3cda2a42	0.026631478
110	0xbceac9a4	-0.028660603
111	0x3c8bce0b	0.017066022
112	0xbc73a55e	-0.01487097
113	0xb9209f18	-0.00015318056
114	0x3c1545b2	0.009110855
115	0x3a9bd305	0.001188845
116	0xbcae66f3	-0.021289324
117	0x3c4c51e9	0.012470701
118	0xbd17d11d	-0.03706466
119	0x3d0afbc0	0.033931494
120	0x3cfe4368	0.031038001
121	0x3c9d4201	0.019196512
122	0xbab80c0c	-0.0014041676
123	0x3c849be3	0.016187614
124	0xbdb075c8	-0.08616215
125	0x3d23118c	0.039811656
126	0xbd5a69b3	-0.05332346
127	0x3cac77fe	0.02105331

features.0.bn.running_var f4 [32]
0	0x3b212611	0.002458934
1	0x3cc9296b	0.024555882
2	0x3b827584	0.003981294
3	0x3c7b1f7a	0.015327329
4	0x3b138b3d	0.0022513412
5	0x3bd0f40f	0.0063767503
6	0x3c9cd8c4	0.01914633
7	0x3b457eb6	0.003013534
8	0x3ba90207	0.0051577124
9	0x3b4f9d47	0.0031679438
10	0x3c1ac63d	0.009446678
11	0x3bb1f877	0.0054312306
12	0x3af3d606	0.0018603213
13	0x3bc1dd3a	0.005916265
14	0x3b9bc3b5	0.0047535547
15	0x3ab213b0	0.001358619
16	0x3bfad2e0	0.007654533
17	0x3c35f6b5	0.011106183
18	0x3bae1fa2	0.0053138295
19	0x3ad73b82	0.0016420933
20	0x3b8671a4	0.0041029025
21	0x3ca2f2f9	0.019891249
22	0x3b696e3a	0.0035618679
23	0x3b84c04f	0.0040512453
24	0x3baa26ab	0.005192598
25	0x3b92a73a	0.0044755014
26	0x3a40ec62	0.00073594425
27	0x3b3110d0	0.0027018078
28	0x3c1daaee	0.009623272
29	0x3bcc4f56	0.0062350435
30	0x3b311183	0.0027018494
31	0x3c011195	0.007877727
