nn/models/320x240/best_model.npz (npz, 447784 bytes, 22 tensors)

predictor.3.bias f4 [5]
-0.05005304 0.12720169 0.13011697 -0.019352598 0.10695143
00000000: 6b04 4dbd 2941 023e 623d 053e 5789 9ebc
00000010: 5a09 db3d

predictor.0.weight f4 [128, 128]
0.076248355 0.0150568485 -0.06138202 0.04870423 0.048544846 -0.031041764 -0.06293403 -0.07396158
-0.06689194 -0.07867326 0.030243844 -0.016476385 -0.085455015 0.0027019903 0.0065999925 0.048320524
-0.031895317 -0.02391684 -0.07794128 -0.040683683 -0.03153222 0.019636378 0.025119245 0.011439793
0.054988705 -0.013879254 -0.08551511 -0.058463287 0.064618014 -0.009786963 -0.07532278 0.035075746
-0.04633195 -0.021843337 -0.0016562194 0.051874883 0.08380621 -0.039213073 -0.06777368 0.007961847
0.081894375 -0.04033864 0.049584888 -0.037039023 0.017894857 -0.019621551 -0.056397706 -0.08298229
-0.009878218 0.021911934 -0.0063355863 -0.08097707 -0.075451806 -0.062474616 0.08366714 0.05879625
-0.06281457 -0.087502375 0.043567963 0.08370323 0.012377046 -0.04090359 0.0063604936 -0.06472288
-0.051086314 -0.018254764 -0.07448645 -0.05833091 0.0025196746 0.034646533 -0.027750421 0.028122887
0.0025117323 -0.02977765 -0.054929618 -0.0653346 -0.08663272 0.085433535 0.064647235 -0.05612504
-0.061780553 -0.07822113 0.004010156 -0.006631829 0.057973795 -0.053166464 0.08438235 0.009237461
-0.07196964 -0.063284785 0.017749459 -0.06475927 0.0022209287 -0.025841124 0.005182475 -0.054369196
0.07483589 -0.03989863 0.028687537 0.02051378 -0.08064524 0.06409808 -0.0344244 0.08460783
0.08318629 0.061189853 -0.08351836 -0.046020053 -0.06935471 -0.017003618 0.07566964 -0.061082605
0.01004941 -0.077359445 0.05015471 -0.07251185 -0.08543666 0.025345668 -0.05630528 -0.07347845
-0.060900833 -0.042478833 -0.07233903 0.051746987 -0.073808715 -0.08356306 -0.027871303 0.024411127
0.00048222358 -0.06131932 0.035575517 0.046494357 -0.029584773 0.0364272 -0.008027355 0.088437036
0.06761155 -0.02754276 -0.05715484 -0.07245449 0.017338587 -0.058893267 0.06349912 -0.020131776
0.01922432 0.013320385 0.046164613 -0.027558586 -0.053197764 0.03176646 -0.08866188 -0.0754358
-0.03180897 -0.028956108 0.026023744 0.0049539674 -0.07552536 0.0015300303 0.03291745 -0.09003549
0.051708195 0.08971105 0.04102702 -0.018074982 0.0041666827 0.06467787 0.02623992 0.049284432
-0.03681203 -0.010768227 -0.016719693 -0.026219206 0.016534176 -0.027337318 0.07337177 0.016159102
-0.097243585 -0.007818461 0.094951704 -0.03759701 0.06975533 0.09030824 -0.036351215 -0.02100599
0.03271554 0.043428194 0.03772903 -0.01158434 -0.076389015 0.041988824 -0.080859356 0.033009373
0.07713278 -0.08736777 0.044586573 0.041764453 0.017660629 -0.04511209 0.07983877 -0.008694436
0.035553858 -0.013797557 0.07110984 0.081426784 0.055574823 -0.06166212 0.04264438 -0.04324582
-0.062703975 -0.084809825 0.052743483 0.08857963 0.007913525 0.07415408 -0.077909365 -0.061675116
-0.021701815 -0.04404846 -0.022551864 0.059434865 0.06774463 0.045942932 -0.017902983 -0.019871196
0.026964115 0.011465909 -0.031890623 0.08363194 0.0746984 -0.061856717 0.042178575 0.06192756
0.023687143 -0.03280749 -0.0865809 -0.012260613 0.063581854 0.031210894 -0.08533068 0.079021744
-0.04048022 0.07394622 0.030998873 0.08598189 -0.057562154 1.8544582e-05 0.031713758 -0.038727682
0.0654017 -0.07617431 -0.06055802 -0.07281242 0.045582987 -0.05534909 0.049272157 0.05640155
00000000: 1928 9c3d 00b1 763c b76b 7bbd 167e 473d
00000010: f6d6 463d 4c4b febc 8fe3 80bd 2b79 97bd
00000020: a4fe 88bd 721f a1bd f0c1 f73c 7cf9 86bc
00000030: 0a03 afbd e013 313b c044 d83b beeb 453d
00000040: aaa4 02bd 40ed c3bc ae9f 9fbd efa3 26bd
00000050: ee27 01bd 78dc a03c e0c6 cd3c f86d 3b3c
00000060: d63b 613d d065 63bc 8c22 afbd 3377 6fbd
00000070: 7356 843d 8059 20bc d442 9abd 96ab 0f3d
00000080: 92c6 3dbd ccf0 b2bc 8015 d9ba c27a 543d
00000090: 97a2 ab3d e39d 20bd edcc 8abd 6872 023c
000000a0: 3db8 a73d 213a 25bd 8619 4b3d 3bb6 17bd
000000b0: 3c98 923c 60bd a0bc 4801 67bd 9ef2 a9bd
000000c0: 40d8 21bc a880 b33c c09a cfbb 4ed7 a5bd
000000d0: 7a86 9abd 62e5 7fbd ad59 ab3d 56d4 703d
000000e0: eda4 80bd 7234 b3bd 5274 323d 996c ab3d
000000f0: 18c9 4a3c 868a 27bd b06b d03b 6e8d 84bd
00000100: e23f 51bd 048b 95bc 5a8c 98bd 64ec 6ebd
00000110: 2021 253b 86e9 0d3d da54 e3bc f861 e63c
00000120: e09b 243b 42f0 f3bc e1fd 60bd 26ce 85bd
00000130: 7f6c b1bd c7f7 ae3d c565 843d 5fe3 65bd
00000140: 9b0d 7dbd 6632 a0bd a067 833b d04f d9bb
00000150: ee75 6d3d 14c5 59bd a7d0 ac3d b858 173c
00000160: d264 93bd 749b 81bd 5067 913c 82a0 84bd
00000170: 008d 113b c4b0 d3bc c0d1 a93b 3cb2 5ebd
00000180: 8f43 993d bf6c 23bd 2002 eb3c 840c a83c
00000190: 5529 a5bd db45 833d 9a00 0dbd df46 ad3d
000001a0: 935d aa3d 36a2 7a3d ad0b abbd 867f 3cbd
000001b0: d809 8ebd 2c4b 8bbc aff8 9a3d c131 7abd
000001c0: 48a6 243c a16e 9ebd 066f 4d3d 1881 94bd
000001d0: 6af9 aebd b8a1 cf3c 5ea0 66bd df7b 96bd
000001e0: 2773 79bd 49fe 2dbd 7c26 94bd a6f4 533d
000001f0: 0629 97bd 1c23 abbd 5c52 e4bc d8f9 c73c
00000200: f4d2 fc39 f829 7bbd a2b7 113d de70 3e3d
00000210: c45b f2bc b034 153d 2b85 03bc 7a1e b53d
00000220: ed77 8a3d 5ba1 e1bc 321b 6abd 0563 94bd
00000230: a709 8e3c 113a 71bd d40b 823d 65eb a4bc
00000240: 527c 9d3c be3d 5a3c 1b17 3d3d 8bc2 e1bc
00000250: e6e5 59bd 8c1d 023d 5c94 b5bd 167e 9abd
00000260: 1f4a 02bd 5c35 edbc bf2f d53c e454 a23b
00000270: 0aad 9abd 4c8b c83a 73d4 063d 8764 b8bd
00000280: f9cb 533d 6dba b73d f30b 283d fc11 94bc
00000290: ab88 883b d575 843d 1af5 d63c 79de 493d
000002a0: 36c8 16bd 386d 30bc bdf7 88bc a9c9 d6bc
000002b0: ae72 873c 83f2 dfbc f043 963d 1860 843c
000002c0: a527 c7bd 0119 00bc 0a76 c23d 53ff 19bd
000002d0: e2db 8e3d 87f3 b83d 03e5 14bd c114 acbc
000002e0: bb00 063d c3e1 313d c189 1a3d 3ecc 3dbc
000002f0: d871 9cbd 79fc 2b3d 9799 a5bd d634 073d
00000300: caf7 9d3d e0ed b2bd 69a0 363d 3411 2b3d
00000310: 06ad 903c 74c7 38bd 8282 a33d 1c73 0ebc
00000320: eca0 113d 260f 62bc 09a2 913d 16c3 a63d
00000330: 6da2 633d 6b91 7cbd e0ab 2e3d 8722 31bd
00000340: f16a 80bd c6b0 adbd 8d09 583d 3d69 b53d
00000350: bba7 013c 18de 973d f28e 9fbd 0c9f 7cbd
00000360: 01c8 b1bc 286c 34bd b0be b8bc f971 733d
00000370: b2bd 8a3d a82e 3c3d 47a9 92bc ebc8 a2bc
00000380: d9e3 dc3c 82db 3b3c be9f 02bd 3947 ab3d
00000390: 7afb 983d 785d 7dbd 71c3 2c3d c1a7 7d3d
000003a0: 8a0b c23c 2661 06bd 5451 b1bd bde0 48bc
000003b0: 3437 823d fdad ff3c dac1 aebd 27d6 a13d
000003c0: 96ce 25bd 1e71 973d 59f1 fd3c 4617 b03d
000003d0: 4bc6 6bbd 3090 9b37 49e6 013d eba0 1ebd
000003e0: 54f1 853d 4701 9cbd b00b 78bd ae1e 95bd
000003f0: 3ab5 3a3d bab5 62bd 9ad1 493d 5005 673d

features.4.bn.running_mean f4 [128]
-3.9914346 5.9634285 5.1318808 -0.490329 0.8360329 5.5975657 -6.5511823 -6.4838037
-4.1955967 -4.4034395 -0.059681654 -2.3266273 2.5774736 -7.411613 -6.4531 -3.7725317
3.9664912 0.49447015 -3.340397 -6.590641 -6.37993 -4.7596674 0.30771217 0.8961225
-6.877057 -3.903936 -6.329045 -2.8298752 -4.833986 -3.5593946 1.5323503 4.3341503
-5.2306476 -6.2773294 4.0987835 3.9057748 1.4834543 -6.64371 1.2984877 0.5255234
-3.8244293 1.1348801 -0.35936576 1.4153275 -4.3175397 -4.681329 -5.4405293 -4.747344
-0.7130722 -5.2568364 -6.686753 -7.397177 -8.206781 -6.4650083 2.7234669 2.2859166
4.8479414 -3.99559 0.14444642 -4.0847206 -4.270016 -0.97279817 5.3671694 -8.707215
-4.1529884 2.6735122 3.8114405 0.11120287 0.46069545 -5.965361 5.372938 -6.1851525
-7.041434 1.3082441 6.2869434 -6.267619 5.0940714 6.793126 -6.3513064 0.65638304
0.15301599 -4.151625 -6.7815666 -3.442537 0.8641237 3.734613 5.7835507 1.8347987
5.4896493 -8.077332 1.5772755 -4.34576 -6.2972608 -3.4741716 0.020906297 3.9448867
-5.388775 2.305886 -5.719034 -4.2751284 -6.743511 0.6797892 -5.9279532 -4.4877057
-5.0903463 -4.6716433 2.3719838 6.1979737 -0.7362905 2.7700424 6.5705986 -7.3605
-0.8850761 1.4552854 -7.051474 -7.9312835 0.4384587 2.278574 -2.8610282 1.4700718
0.12910573 4.385534 0.23101223 2.077988 -7.1381326 -2.0836873 -5.756824 -4.688574
00000000: aa73 7fc0 68d4 be40 5e38 a440 670c fbbe
00000010: 4106 563f 421f b340 49a3 d1c0 527b cfc0
00000020: 5442 86c0 fae8 8cc0 c074 74bd 76e7 14c0
00000030: 54f5 2440 ef2b edc0 cc7f cec0 2971 71c0
00000040: feda 7d40 312b fd3e 10c9 55c0 88e6 d2c0
00000050: 6328 ccc0 324f 98c0 738c 9d3e 4968 653f
00000060: da10 dcc0 16da 79c0 8987 cac0 ad1c 35c0
00000070: 03b0 9ac0 1fcd 63c0 0e24 c43f 5cb1 8a40
00000080: 7761 a7c0 e2df c8c0 3c29 8340 37f8 7940
00000090: d5e1 bd3f 4699 d4c0 d834 a63f b488 063f
000000a0: 73c3 74c0 c043 913f cafe b7be 7429 b53f
000000b0: 4929 8ac0 72cd 95c0 d118 aec0 3eea 97c0
000000c0: e68b 36bf 0138 a8c0 e1f9 d5c0 adb5 ecc0
000000d0: fa4e 03c1 59e1 cec0 484d 2e40 754c 1240
000000e0: 5622 9b40 bfb7 7fc0 c3e9 133e 08b6 82c0
000000f0: f9a3 88c0 4d09 79bf dabf ab40 c150 0bc1
00000100: 48e5 84c0 d31a 2b40 a4ee 7340 55be e33d
00000110: 46e0 eb3e 3de4 bec0 1cef ab40 c5ec c5c0
00000120: 6d53 e1c0 8b74 a73f a42e c940 5690 c8c0
00000130: a202 a340 4a61 d940 e73d cbc0 b808 283f
00000140: 39b0 1c3e 1dda 84c0 9802 d9c0 8752 5cc0
00000150: 3637 5d3f e603 6f40 d912 b940 afda ea3f
00000160: 35ab af40 c03c 01c1 2ae4 c93f 7710 8bc0
00000170: 2983 c9c0 d458 5ec0 af43 ab3c 0679 7c40
00000180: d870 acc0 a393 1340 5402 b7c0 dacd 88c0
00000190: d8ca d7c0 aa06 2e3f cbb1 bdc0 499b 8fc0
000001a0: 1ee4 a2c0 1a7e 95c0 95ce 1740 cd55 c640
000001b0: 897d 3cbf 6048 3140 5842 d240 3789 ebc0
000001c0: 5994 62bf cb46 ba3f ada5 e1c0 13cd fdc0
000001d0: a97d e03e 28d4 1140 161b 37c0 502b bc3f
000001e0: 4b34 043e 4b56 8c40 788e 6c3e c1fd 0440
000001f0: 956b e4c0 225b 05c0 e737 b8c0 cc08 96c0

features.4.conv.bias f4 [128]
0.000113565344 -5.573583e-06 2.4518518e-05 4.5829245e-05 -0.00021054497 -1.211655e-05 6.621739e-05 0.00015015462
3.24889e-05 0.00028697404 -4.739916e-05 0.00012510087 -2.3716091e-05 9.097851e-06 0.00015487574 -7.0951675e-05
4.1716554e-05 2.774211e-06 6.873921e-05 -1.851544e-05 -3.614901e-05 4.71606e-06 -3.6547182e-05 5.8369747e-05
6.5854765e-05 -0.00028782527 -1.97393e-05 4.5153174e-05 7.657985e-05 -8.138677e-05 -3.4130375e-05 -5.3429634e-05
7.759275e-05 -1.9964014e-05 2.2671513e-05 7.910865e-06 -5.5088443e-05 -4.831182e-06 -0.00011874481 2.3583318e-06
0.00015797115 0.00011527018 1.6887805e-05 5.0796833e-05 8.8484245e-05 7.075927e-05 4.5819831e-07 2.5631542e-05
3.3460616e-05 0.00011357173 -1.6838956e-05 -2.6566036e-05 -8.537839e-05 -3.3413776e-06 -3.6785867e-05 3.280413e-05
8.157639e-05 4.2693784e-05 -2.1095216e-06 -0.00013332677 -7.457686e-05 -8.5754706e-05 0.0002515934 -6.482876e-05
0.00011359784 9.988724e-05 -1.5950442e-05 -9.020115e-05 0.00011622796 -9.817248e-05 3.5677644e-05 -0.00023731429
1.8393592e-05 1.3840338e-05 -2.1223743e-05 3.963092e-05 5.090256e-05 7.764884e-05 -2.6601607e-05 1.0218314e-05
2.1110234e-05 -1.8714638e-05 -1.521657e-05 1.4996629e-05 -2.4744597e-06 -6.0867278e-05 3.8212638e-05 -0.000107663174
-2.4672938e-05 2.7610236e-05 0.00016937363 2.95097e-05 -5.244669e-05 -8.3631585e-06 0.00010349774 6.2100095e-05
2.5269115e-05 -9.796657e-05 -7.0294074e-05 0.00012804769 4.7455316e-05 -3.753319e-05 2.6161638e-06 -6.709537e-06
-0.00011109853 -0.0001485307 -0.00010166775 3.5358169e-06 -5.7832544e-06 0.00013029664 6.357271e-05 1.6265083e-06
-1.7742128e-05 -0.0002623813 4.380882e-05 9.85683e-05 7.959619e-06 -5.446693e-05 -0.00013851142 -3.1402134e-05
0.00026796942 -1.7660292e-06 -7.0858673e-06 4.6492973e-05 -2.1125982e-06 1.948689e-05 -7.638025e-06 0.00011811962
00000000: ee29 ee38 b704 bbb6 1ead cd37 c738 4038
00000010: bcc5 5cb9 3048 4bb7 31de 8a38 d372 1d39
00000020: b144 0838 0175 9639 76ce 46b8 822d 0339
00000030: ebf1 c6b7 f9a2 1837 2466 2239 e4cb 94b8
00000040: cff8 2e38 952c 3a36 1528 9038 9b51 9bb7
00000050: b49e 17b8 a63e 9e36 3d4a 19b8 0ad2 7438
00000060: 821b 8a38 41e7 96b9 d395 a5b7 da62 3d38
00000070: 7e99 a038 30ae aab8 3627 0fb8 a219 60b8
00000080: 4ab9 a238 6578 a7b7 b42e be37 e8b8 0437
00000090: c40e 67b8 8a1b a2b6 a206 f9b8 d543 1e36
000000a0: 0fa5 2539 35bd f138 49aa 8d37 af0e 5538
000000b0: 9e90 b938 9864 9438 4cfe f534 5103 d737
000000c0: 1058 0c38 5c2d ee38 6241 8db7 21da deb7
000000d0: 2d0d b3b8 6e3c 60b6 864a 1ab8 2b97 0938
000000e0: fe13 ab38 1a12 3338 4e91 0db6 a2cd 0bb9
000000f0: 2666 9cb8 35d7 b3b8 4be8 8339 adf4 87b8
00000100: 603b ee38 8e7a d138 50cd 85b7 602a bdb8
00000110: 69bf f338 f3e1 cdb8 94a4 1538 92d7 78b9
00000120: f04b 9a37 cd33 6837 a409 b2b7 6039 2638
00000130: 3580 5538 67d7 a238 8426 dfb7 536f 2b37
00000140: e215 b137 61fd 9cb7 ac4a 7fb7 089a 7b37
00000150: e50e 26b6 be4b 7fb8 8246 2038 3ac9 e1b8
00000160: bbf8 ceb7 889c e737 e399 3139 998b f737
00000170: 34fa 5bb8 7e4f 0cb7 ed0c d938 bc3b 8238
00000180: 03f9 d337 6773 cdb8 d86a 93b8 8a44 0639
00000190: c20a 4738 f56c 1db8 5a91 2f36 7c22 e1b6
000001a0: 92fd e8b8 e8be 1bb9 7536 d5b8 df48 6d36
000001b0: c70d c2b6 3da0 0839 5752 8538 664e da35
000001c0: eed4 94b7 3990 89b9 5dbf 3738 74b6 ce38
000001d0: 4e8a 0537 6c73 64b8 603d 11b9 c9b5 03b8
000001e0: 3f7e 8c39 4d08 edb5 23c3 edb6 7301 4338
000001f0: 29c6 0db6 c777 a337 1125 00b7 fdb6 f738

features.4.conv.weight f4 [128, 3, 3, 64]
-0.061342925 0.005351752 0.07717724 -0.053555172 -0.03178009 -0.013918011 0.033035677 -0.021496939
-0.0708036 0.05588113 0.015802793 -0.030972151 -0.03621938 -0.032616768 0.016796242 -0.043269284
-0.05780983 -0.04981204 -0.06523652 -0.035303947 -0.033807367 -0.04196754 -0.05723263 -0.008519583
-0.02953646 -0.026743777 0.018223813 -0.0013926319 -0.05753362 0.024394274 -0.020011365 0.0061788848
0.011674888 -0.004451138 -0.015554126 -0.024013195 -0.03470625 -0.0014347201 -2.5181434e-06 0.0014828338
0.006160211 -0.049736 -0.020013064 -0.018179527 -0.01971699 -0.02696332 0.034412403 -0.0038517073
0.018404664 -0.0152897015 -0.0010137103 -0.0071712835 -0.071752995 -0.06066735 -0.03367007 -0.040868983
-0.0752676 -0.06126602 -0.0015593527 0.012659244 -0.04496514 -0.06920697 0.024812644 -0.055721153
-0.024510443 -0.023863481 0.0693785 -0.07449799 -0.050443705 -0.031444628 0.038055714 -0.059557404
-0.061278168 -0.006014662 -0.060194947 -0.011457945 -0.071858935 0.0038729387 -0.033165213 -0.05654473
0.011609568 -0.008749404 -0.028292505 0.006122649 -0.021895738 0.013334209 -0.0074538444 -0.02309623
-0.06292875 0.00082095177 0.013896222 -0.015408278 -0.02162859 0.027644968 -0.037845965 -0.027380353
-0.05393207 0.032569926 -0.0783081 -0.042231385 0.009719992 -0.00766617 0.022479335 -0.051710375
-0.03689643 -0.0036778296 0.012694195 0.00032344472 -0.008054424 -0.02895529 0.00086950924 -0.01708404
0.06450158 -0.04237678 -0.02390234 -0.009637289 -0.07298681 -0.05635244 -0.027343348 -0.014636796
-0.04579099 -0.04276639 0.017972322 0.013797831 -0.059058446 -0.03412058 0.012764022 -0.08052355
-0.06392551 -0.007113546 0.054084953 -0.078564286 -0.052493826 -0.03541143 0.011170785 -0.05965201
-0.052249532 0.053412236 -0.036625743 -0.060474724 -0.008024526 -0.06641679 -0.038823783 0.01593374
-0.06856688 -0.019773193 -0.04083999 0.0072661187 -0.054679684 0.0043112324 0.0016009575 -0.05428711
0.0018379212 0.021110246 -0.022549752 -0.019888975 -0.022251729 0.071401745 -0.06448983 -0.03154603
-0.0118803 -0.019101268 -0.05021411 0.0047919387 0.015550638 -0.01681095 0.013286836 -0.00622093
-0.022491526 -0.07541847 -0.038879402 -0.042029988 -0.042406693 -0.013921247 -0.023035862 -0.07262799
0.030854065 -0.016395586 0.00943869 -0.023640996 -0.012948973 -0.026527168 -0.058574628 -0.016726695
-0.040296003 -0.0068633915 0.016201993 0.008963421 -0.025084816 -0.07516819 -0.020026831 -0.04328354
-0.07461423 -0.06623583 0.08939419 -0.001112452 -0.04272985 -0.023813501 0.048128337 -0.041434962
0.008378909 0.002472489 0.0032138333 0.0014872382 -0.064329565 -0.015204997 0.053380903 -0.0020308401
-0.041154496 -0.0049765003 -0.0003106574 -0.018806692 -0.01827735 -0.052396704 -0.053601034 -0.009607306
-0.07501087 -0.025369836 -0.018193403 -0.019709263 -0.05376238 0.045554616 -0.0287604 -0.015487552
-0.057347864 0.020176515 -0.02196558 0.016579164 0.027568579 -0.01712754 0.029463843 -0.01237544
-0.0073800264 -0.03621946 0.007659007 -0.07307956 -0.07218883 0.0198785 0.017157732 -0.02333781
0.03919201 0.00529481 0.025416492 0.022652075 0.002791522 -0.045819346 -0.05570172 -0.039097212
-0.053834822 -0.0061896513 -0.030921757 -0.028745435 -0.012677858 -0.051945776 0.042450707 -0.018820403
00000000: b842 7bbd c05d af3b 1a0f 9e3d ab5c 5bbd
00000010: d72b 02bd 5f08 64bc 6b50 073d 591a b0bc
00000020: 7a01 91bd 9de3 643d dc74 813c 4fb9 fdbc
00000030: c65a 14bd 2999 05bd 4698 893c 223b 31bd
00000040: 00ca 6cbd b607 4cbd b99a 85bd df9a 10bd
00000050: 9879 0abd 28e6 2bbd c36c 6abd b995 0bbc
00000060: 72f6 f1bc c415 dbbc 1b4a 953c f988 b6ba
00000070: 60a8 6bbd 80d6 c73c e0ee a3bc 3e78 ca3b
00000080: 0848 3f3c dada 91bb bcd6 7ebc 52b7 c4bc
00000090: 2428 0ebd 380d bcba 60fd 28b6 a55b c23a
000000a0: 98db c93b fab7 4bbd 70f2 a3bc 3bed 94bc
000000b0: 8685 a1bc 2ee2 dcbc 05f4 0c3d ed6c 7cbb
000000c0: 61c5 963c a881 7abc 79de 84ba 16fd eabb
000000d0: 3cf3 92bd 547e 78bd a1e9 09bd 3c66 27bd
000000e0: e625 9abd 14f2 7abd 3263 ccba b868 4f3c
000000f0: 5e2d 38bd 62bc 8dbd e343 cb3c dd3b 64bd
00000100: 20ca c8bc 597d c3bc 5116 8e3d 6792 98bd
00000110: 0f9e 4ebd 15cc 00bd 4fe0 1b3d 77f2 73bd
00000120: d1fe 7abd a416 c5bb fa8e 76bd 1bba 3bbc
00000130: c72a 93bd 21d1 7d3b 3fd8 07bd 729b 67bd
00000140: 0f36 3e3c a959 0fbc afc5 e7bc 81a0 c83b
00000150: b15e b3bc ba77 5a3c 613f f4bb 4e34 bdbc
00000160: cae0 80bd 2435 573a fbac 633c 0173 7cbc
00000170: 712e b1bc b377 e23c 5f04 1bbd c34c e0bc
00000180: e0e7 5cbd 0b68 053d ff5f a0bd d1fa 2cbd
00000190: 9a40 1f3c 7f34 fbbb 9526 b83c 42ce 53bd
000001a0: b620 17bd be07 71bb 50fb 4f3c 0494 a939
000001b0: b4f6 03bc a533 edbc c7ef 633a d4f3 8bbc
000001c0: 6819 843d 4693 2dbd d7ce c3bc b8e5 1dbc
000001d0: 1c7a 95bd d1d1 66bd 28ff dfbc 2ccf 6fbc
000001e0: 558f 3bbd cf2b 2fbd b13a 933c 4c10 623c
000001f0: 45e7 71bd 05c2 0bbd 3020 513c 88e9 a4bd
00000200: 61eb 82bd c018 e9bb 2f88 5d3d 50e6 a0bd
00000210: c403 57bd 930b 11bd ab05 373c ab55 74bd
00000220: 9b03 56bd cac6 5a3d e004 16bd 58b4 77bd
00000230: 4d79 03bc 8705 88bd b005 1fbd 7a87 823c
00000240: cb6c 8cbd 64fb a1bc d547 27bd 9f18 ee3b
00000250: cef7 5fbd 3d45 8d3b 38d7 d13a 295c 5ebd
00000260: 67e6 f03a 65ef ac3c 42ba b8bc 34ee a2bc
00000270: 4249 b6bc 143b 923d 3e13 84bd 6936 01bd
00000280: 97a5 42bc 437a 9cbc 50ad 4dbd b205 9d3b
00000290: 1ac8 7e3c 1eb7 89bc 08b1 593c f1d8 cbbb
000002a0: 2640 b8bc 0075 9abd 0240 1fbd a327 2cbd
000002b0: a4b2 2dbd f115 64bc b4b5 bcbc fcbd 94bd
000002c0: aac1 fc3c 0950 86bc bca4 1a3c c3aa c1bc
000002d0: ee27 54bc 814f d9bc f3eb 6fbd 6c06 89bc
000002e0: 6c0d 25bd 4de6 e0bb 0bba 843c 50db 123c
000002f0: ac7e cdbc c8f1 99bd 4f0f a4bc 154a 31bd
00000300: 58cf 98bd a7a6 87bd 4d14 b73d b2cf 91ba
00000310: 7f05 2fbd 8814 c3bc 3822 453d b5b7 29bd
00000320: b147 093c 7b09 223b 2d9f 523b 6fef c23a
00000330: 38bf 83bd 611e 79bc efa5 5a3d d817 05bb
00000340: 9e91 28bd e911 a3bb bbdf a2b9 7e10 9abc
00000350: 62ba 95bc ed9d 56bd c28c 5bbd f667 1dbc
00000360: 4d9f 99bd 67d4 cfbc 550a 95bc 5275 a1bc
00000370: f135 5cbd 7a97 3a3d ee9a ebbc 80bf 7dbc
00000380: 98e5 6abd 3849 a53c 29f1 b3bc 07d1 873c
00000390: 80d7 e13c 0e4f 8cbc 285e f13c 5cc2 4abc
000003a0: 26d4 f1bb db5a 14bd 68f8 fa3b bdaa 95bd
000003b0: bdd7 93bd 3cd8 a23c 5f8e 8c3c ef2e bfbc
000003c0: cd87 203d 1680 ad3b 3f36 d03c d890 b93c
000003d0: f8f1 363b 11ad 3bbd 7d27 64bd 6624 20bd
000003e0: e781 5cbd 8fd2 cabb a04f fdbc 8c7b ebbc
000003f0: cab6 4fbc 18c5 54bd cbe0 2d3d 3f2d 9abc

features.2.bn.running_var f4 [64]
51.03538 32.366257 29.870646 156.08798 61.948128 68.94914 37.485283 103.75748
118.98523 38.810417 51.172478 71.58789 44.43592 101.18953 37.196865 62.88729
56.030907 53.659363 143.15254 82.43893 144.84842 15.019631 152.66739 103.03214
49.763664 9.591535 53.58591 134.46175 77.951675 26.347866 136.17062 112.737686
44.513214 38.87983 34.71774 8.533569 20.64184 69.05932 44.480648 27.926056
104.9629 91.969376 159.89256 64.646324 130.3669 57.1758 40.444 49.124313
60.82564 64.36057 17.87352 32.271996 20.881472 94.31802 86.8089 92.56589
72.04277 107.74469 67.73945 46.12411 48.450165 123.38152 30.416363 131.89772
00000000: 3b24 4c42 0c77 0142 15f7 ee41 8616 1c43
00000010: e2ca 7742 f6e5 8942 eef0 1542 d483 cf42
00000020: 70f8 ed42 de3d 1b42 9eb0 4c42 002d 8f42
00000030: 62be 3142 0a61 ca42 97c9 1442 968c 7b42
00000040: a61f 6042 30a3 5642 0d27 0f43 bbe0 a442
00000050: 32d9 1043 6950 7041 daaa 1843 7510 ce42
00000060: fe0d 4742 ed76 1941 f957 5642 3576 0643
00000070: 42e7 9b42 6ec8 d241 ae2b 0843 b279 e142
00000080: 880d 3242 f284 1b42 f7de 0a42 8089 0841
00000090: 7d22 a541 5f1e 8a42 2fec 3142 9068 df41
000000a0: 01ed d142 52f0 b742 7fe4 1f43 eb4a 8142
000000b0: ed5d 0243 05b4 6442 a8c6 2142 4c7f 4442
000000c0: 754d 7342 9db8 8042 f8fc 8e41 8616 0142
000000d0: 410d a741 d4a2 bc42 289e ad42 bc21 b942
000000e0: e615 9042 487d d742 997a 8742 177f 3842
000000f0: f8cc 4142 57c3 f642 b654 f341 d1e5 0343

features.2.bn.bias f4 [64]
-0.019763663 -0.009698375 0.070326835 -0.07362587 0.025513256 -0.08094183 -0.04052736 -0.12837106
-0.07847492 0.0023586238 0.110611215 -0.04478609 0.120984145 0.04434235 0.13884932 -0.024669671
0.010362657 0.07082637 -0.11367896 -0.025758503 0.030850617 0.05035842 -0.07302585 -0.04686187
-0.022808617 -0.14317189 0.08722246 0.045281883 0.14122869 0.10474646 -0.062187944 0.020989984
0.092233405 0.092735596 -0.0025700044 -0.09095328 0.026894068 -0.038294904 0.08304154 0.06163401
-0.04356292 -0.11745037 0.017948521 -0.053904187 -0.06433326 0.016203986 -0.051400673 0.018164214
0.027957642 -0.050265763 0.043284398 -0.011757041 0.024982253 -0.07691389 -0.050647635 -0.1009309
0.07146345 -0.023746312 0.028549751 -0.025812663 -0.03865903 -0.029291904 0.014485886 0.005651753
00000000: 68e7 a1bc efe5 1ebc 8407 903d 29c9 96bd
00000010: 2d01 d13c d5c4 a5bd 0400 26bd b473 03be
00000020: 75b7 a0bd 2493 1a3b 2288 e23d 9e71 37bd
00000030: 89c6 f73d 53a0 353d 842e 0e3e 0d18 cabc
00000040: 22c8 293c 6a0d 913d 84d0 e8bd 7f03 d3bc
00000050: 6fba fc3c a144 4e3d 948e 95bd 3bf2 3fbd
00000060: 23d9 babc a79b 12be b0a1 b23d 7f79 393d
00000070: 419e 103e 5085 d63d c9b8 7ebd 30f3 ab3c
00000080: dee4 bc3d 29ec bd3d 856d 28bb b745 babd
00000090: f350 dc3c 1edb 1cbd af11 aa3d f273 7c3d
000000a0: 086f 32bd d289 f0bd c708 933c a3ca 5cbd
000000b0: 28c1 83bd 39be 843c 8389 52bd 1ecd 943c
000000c0: 6d07 e53c 79e3 4dbd fb4a 313d 9ba0 40bc
000000d0: 95a7 cc3c 0885 9dbd e573 4fbd dcb4 cebd
000000e0: 6e5b 923d a087 c2bc 2be1 e93c 1475 d3bc
000000f0: ee58 1ebd 93f5 efbc 3656 6d3c 5732 b93b

predictor.0.bias f4 [128]
-0.00410901 0.12363191 0.008845601 -0.016386596 0.13210106 -0.056559123 -0.029864628 -0.11175968
0.019123562 0.06743396 -0.057784647 -0.08228543 0.01262815 -0.067618445 -0.010575628 0.036204
-0.01049711 -0.032535017 0.06846761 -0.014535804 0.049069736 -0.07128025 0.0008396196 -0.023617454
-0.011605429 -0.06681069 -0.027087938 -0.053974923 -0.09239116 -0.01305345 0.036538597 -0.013956571
0.022454057 -0.07943127 0.05108813 -0.045949213 -0.0828086 -0.030874318 -0.019730926 0.0033284514
-0.0220169 -0.08736169 0.02676115 -0.018648196 0.031965535 0.04652718 -0.05784466 0.025168415
-0.06019838 0.08015275 -0.037115548 0.026781583 0.008596025 -0.111302815 -0.08166553 -0.015324958
0.030142112 -0.068098664 0.022018401 -0.05377015 0.089502156 -0.055502817 -0.11563951 -0.02412789
-0.03390181 -0.108777076 -0.09578181 -0.0015650466 -0.06752361 0.0909929 -0.124873616 0.04742521
-0.059618305 0.06879266 0.011773057 0.024058525 -0.07250088 -0.07159438 -0.03765218 -0.06945508
-0.010504364 0.018820541 0.011992329 0.0662749 0.09689168 0.09951458 0.02767897 0.010802371
-0.09180437 -0.11840244 0.00671272 -0.044134803 -0.0912373 0.038381934 0.039826684 -0.061597005
0.119716965 0.040090993 -0.029121965 0.13249475 -0.06896924 -0.08988678 0.02429654 -0.030519273
0.04526762 -0.03653544 0.03816112 -0.058695864 -0.09394577 -0.036407948 0.00088250986 -0.07243251
0.033548396 -0.014335348 -0.042224392 -0.031154202 0.026114685 -0.015426579 -0.12066732 0.01544415
-0.109985396 -0.087333724 0.010862357 0.055634715 0.020189183 0.041730117 -0.025407836 0.04146575
00000000: e0a4 86bb ba32 fd3d 24ed 103c 2f3d 86bc
00000010: 8045 073e 8aaa 67bd aaa6 f4bc 42e2 e4bd
00000020: 04a9 9c3c d11a 8a3d 98af 6cbd 4385 a8bd
00000030: 4de6 4e3c 8a7b 8abd 6645 2dbc a54a 143d
00000040: 12fc 2bbc 7043 05bd bf38 8c3d 9527 6ebc
00000050: 59fd 483d 61fb 91bd eb19 5c3a 6479 c1bc
00000060: b324 3ebc 0bd4 88bd 86e7 ddbc cf14 5dbd
00000070: 9437 bdbd 23de 55bc 7fa9 153d 1aaa 64bc
00000080: 92f1 b73c ddac a2bd c941 513d 3e35 3cbd
00000090: 8e97 a9bd 23ec fcbc c0a2 a1bc 2622 5a3b
000000a0: c95c b4bc b0ea b2bd 333a db3c 1ac4 98bc
000000b0: 4bee 023d 4993 3e3d 86ee 6cbd fe2d ce3c
000000c0: 9492 76bd 2027 a43d 7906 18bd 0d65 db3c
000000d0: 58d6 0c3c bbf2 e3bd 4240 a7bd 8815 7bbc
000000e0: 97ec f63c 5077 8bbd ef5f b43c 173e 5cbd
000000f0: e84c b73d ec56 63bd 68d4 ecbd daa7 c5bc
00000100: a0dc 0abd 84c6 debd 4129 c4bd 4022 cdba
00000110: d249 8abd 7c5a ba3d bdbd ffbd f040 423d
00000120: 5332 74bd 2be3 8c3d c8e3 403c 6216 c53c
00000130: 577b 94bd 13a0 92bd 2c39 1abd 773e 8ebd
00000140: 7f1a 2cbc 892d 9a3c 797b 443c 23bb 873d
00000150: 256f c63d 4dce cb3d 02bf e23c 6efc 303c
00000160: ee03 bcbd fa7c f2bd 60f6 db3b b2c6 34bd
00000170: 9fda babd 6036 1d3d 4e21 233d 244d 7cbd
00000180: 2b2e f53d 7436 243d 3091 eebc b4ac 073e
00000190: bf3f 8dbd 8f16 b8bd 8a09 c73c 8e03 fabc
000001a0: 8a6a 393d 2fa6 15bd d64e 1c3d 136b 70bd
000001b0: a466 c0bd 8020 15bd 3c58 673a 7f57 94bd
000001c0: 0b6a 093d cfde 6abc 7cf3 2cbd 1937 ffbc
000001d0: 77ee d53c c3bf 7cbc 6e20 f7bd 7609 7d3c
000001e0: 0640 e1bd 06dc b2bd 07f8 313c 3ae1 633d
000001f0: c963 a53c 33ed 2a3d 1824 d0bc fed7 293d

features.0.conv.weight f4 [32, 3, 3, 1]
0.025594095 0.13203374 0.061327968 -0.056404617 -0.15967087 0.25135738 0.15188253 0.0003618329
-0.26356906 0.4546034 0.009226975 -0.21931645 -0.08163335 0.12843965 -0.21420696 -0.14363779
0.22178768 -0.13466634 0.1104851 0.2923096 0.037834726 -0.22113219 0.25755 -0.12910411
-0.3000352 0.0025311464 0.27989638 0.24907438 0.08005739 0.051754855 -0.3256458 0.15831423
0.09058841 -0.24302709 0.3340347 0.32110992 0.0709545 -0.16393 -0.08420105 0.32836336
-0.11489416 0.25563195 -0.27096778 0.16551408 -0.026989961 -0.008390374 -0.023375673 -0.15703574
-0.17114569 -0.021745736 0.12795882 -0.03168397 -0.06835763 0.22686847 -0.039774694 -0.06923613
0.22457178 0.20334284 0.14194056 -0.24935175 0.20218462 -0.056644082 -0.20676053 0.33690435
-0.13016665 0.07572083 0.26189336 0.10123921 0.08349538 -0.017409269 -0.2861831 0.269153
-0.20316075 -0.1887065 -0.03267376 -0.1460921 -0.039120723 0.21304598 0.37729716 -0.014524122
0.07700602 -0.050733168 -0.048550908 -0.21083114 0.27565932 -0.2184764 -0.11168599 0.2689096
-0.19462001 0.29533136 -0.10292728 -0.17969337 -0.03354629 -0.058784086 -0.23724218 -0.1800489
0.22660203 0.32027626 0.27880758 0.27775806 -0.008353202 0.36329076 0.105774604 -0.06316432
0.05369663 -0.107371636 0.021423364 0.020370957 0.15551169 -0.273305 -0.08955289 -0.0012730451
0.039427195 -0.2762274 0.07191644 0.31056172 0.16402876 -0.031379703 0.20303291 0.06444627
0.2193182 0.09822204 -0.28916606 0.28622687 -0.28579864 -0.1856606 0.28544638 0.20495519
0.08995888 -0.30408362 0.33056107 0.106624775 0.35579526 -0.09753281 -0.16711366 0.12466692
0.17513058 0.07565372 -0.11436829 -0.31969577 0.11461676 -0.15487622 0.09752945 0.044699676
-0.026889456 0.06467304 0.18510832 -0.085080035 0.08388413 0.19389148 -0.073365726 0.33678907
0.33968362 -0.3058644 0.18196349 0.26667783 0.21895045 0.24778359 -0.059318125 -0.19875403
-0.17086646 -0.045402434 0.02634015 0.28899428 -0.34666175 0.15850927 0.014388062 -0.04612098
0.33042026 -0.13736486 0.16950673 0.1499951 0.15648143 -0.14328079 -0.18454391 0.17013384
0.26977035 -0.19434822 -0.06400546 -0.117512494 0.028151857 0.21697547 0.119182065 -0.15774891
-0.1904913 -0.32744455 -0.059398416 0.054051414 0.306803 -0.12741655 -0.21394181 0.27688673
0.23276378 0.013790674 0.13099055 0.04696414 0.18960235 0.16736352 -0.11677378 0.3426076
0.025456436 -0.23183618 0.16364233 0.16379502 0.0215977 0.17396708 0.22577326 -0.16215064
0.35190645 -0.2031848 -0.27568117 0.18061386 -0.12438675 0.14727673 0.29670897 -0.12028967
-0.18911654 0.12753703 -0.05986713 0.2615552 -0.22158383 -0.024050761 0.008988289 -0.230895
0.35931677 0.06821881 -0.28515995 -0.029334705 0.23324743 0.22702068 -0.18720742 0.20752017
0.24038146 0.19198048 0.33274806 0.118814096 0.20387323 0.0765918 -0.0012388448 -0.058913216
-0.2885392 -0.15144324 0.20230336 -0.08500311 -0.07031465 -0.021557668 -0.020811135 0.2043571
0.09620168 -0.11125624 0.33458394 -0.22896825 -0.006072858 -0.24106207 0.22094736 -0.15098031
00000000: b5aa d13c da33 073e 0933 7b3d 8708 67bd
00000010: c380 23be eab1 803e 1887 1b3e 64b4 bd39
00000020: 86f2 86be c7c1 e83e bd2c 173c 7e94 60be
00000030: 632f a7bd af85 033e 1259 5bbe c915 13be
00000040: 4f1c 633e f9e5 09be 0346 e23d 9ba9 953e
00000050: 96f8 1a3d 7a70 62be 98dd 833e de33 04be
00000060: 379e 99be 97e1 253b 944e 8f3e 5b0d 7f3e
00000070: 21f5 a33d e6fc 533d 0cbb a6be 201d 223e
00000080: 6b86 b93d 18dc 78be 9906 ab3e 8568 a43e
00000090: 9850 913d 44dd 27be 9a71 acbd 3e1f a83e
000000a0: a14d ebbd 31e2 823e 4abc 8abe 867c 293e
000000b0: 0d1a ddbc c777 09bc 577e bfbc facd 20be
000000c0: d140 2fbe 1d24 b2bc a307 033e 0dc7 01bd
000000d0: 16ff 8bbd 3550 683e caea 22bd accb 8dbd
000000e0: 25f6 653e 1b39 503e de58 113e 1156 7fbe
000000f0: 7c09 4f3e a003 68bd 08b9 53be ba7e ac3e
00000100: 684a 05be 8613 9b3d e316 863e 8156 cf3d
00000110: a0ff aa3d e29d 8ebc 9786 92be 6cce 893e
00000120: 5f09 50be 473c 41be ecd4 05bd 2b99 15be
00000130: 0d3d 20bd ba28 5a3e 182d c13e 95f6 6dbc
00000140: 55b5 9d3d 95cd 4fbd 51dd 46bd 1ee4 57be
00000150: 3823 8d3e 47b8 5fbe a0bb e4bd 85ae 893e
00000160: 784a 47be ac35 973e 8acb d2bd 8a01 38be
00000170: d667 09bd 95c7 70bd 9def 72be bd5e 38be
00000180: 5d0a 683e 40fb a33e debf 8e3e 4e36 8e3e
00000190: dedb 08bc 3f01 ba3e 5ba0 d83d 4c5c 81bd
000001a0: fff0 5b3d a9e5 dbbd 0d80 af3c fee0 a63c
000001b0: 753e 1f3e a2ee 8bbe 8167 b7bd 4edc a6ba
000001c0: 697e 213d ae6d 8dbe ed48 933d f201 9f3e
000001d0: 28f7 273e 0188 00bd dce7 4f3e 68fc 833d
000001e0: f394 603e a328 c93d 930d 94be 548c 923e
000001f0: 3354 92be d01d 3ebe 0726 923e c6df 513e
00000200: 5c3c b83d d9b0 9bbe 4d3f a93e 175e da3d
00000210: cc2a b63e 48bf c7bd d81f 2bbe 5f51 ff3d
00000220: 6e55 333e 56f0 9a3d ec39 eabd 2aaf a3be
00000230: 31bc ea3d df97 1ebe 85bd c73d 0217 373d
00000240: 4747 dcbc 4c73 843d 098d 3d3e 713e aebd
00000250: 71cb ab3d 7d8b 463e c540 96bd 9e6f ac3e
00000260: 03eb ad3e 429a 9cbe a354 3a3e ff89 883e
00000270: 8c34 603e fbba 7d3e 90f7 72bd 2d86 4bbe
00000280: 9ef7 2ebe e7f7 39bd 4cc7 d73c 0ff7 933e
00000290: a67d b1be 4150 223e e8bb 6b3c 5ae9 3cbd
000002a0: d82c a93e 60a9 0cbe 2c93 2d3e 5198 193e
000002b0: ab3c 203e 33b8 12be 14f9 3cbe 9137 2e3e
000002c0: 571f 8a3e 3803 47be 4b15 83bd 64aa f0bd
000002d0: b99e e63c d12e 5e3e ba15 f43d ee88 21be
000002e0: 2710 43be d0a6 a7be c14b 73bd 0465 5d3d
000002f0: 4815 9d3e 7c79 02be 9013 5bbe 19c4 8d3e
00000300: a159 6e3e 47f2 613c 6322 063e 785d 403d
00000310: 1e27 423e 5861 2b3e 1727 efbd 436a af3e
00000320: 048a d03c 7766 6dbe db91 273e e2b9 273e
00000330: a9ed b03c 6d24 323e 1b31 673e d10a 26be
00000340: 152d b43e ad0f 50be 1526 8dbe d7f2 383e
00000350: 7bbe febd b6cf 163e 3dea 973e 6e5a f6bd
00000360: c4a7 41be 1199 023e 3c37 75bd 90ea 853e
00000370: dfe6 62be 1a06 c5bc 9e43 133c bd6f 6cbe
00000380: 5ef8 b73e 4eb6 8b3d 7c00 92be 564f f0bc
00000390: 6ad8 6e3e 1c78 683e 4db3 3fbe 2b80 543e
000003a0: 8f26 763e 8896 443e f45d aa3e ce54 f33d
000003b0: 25c4 503e 29dc 9c3d bc60 a2ba fc4e 71bd
000003c0: 69bb 93be f013 1bbe 9d28 4f3e 1c16 aebd
000003d0: 2101 90bd b599 b0bc 1d7c aabc fd42 513e
000003e0: 6305 c53d 50da e3bd 964e ab3e a776 6abe
000003f0: d3fe c6bb fad8 76be 0640 623e 959a 1abe

features.2.bn.running_mean f4 [64]
3.4504936 2.7621937 -2.5410783 5.9002886 3.6254447 3.9514353 -2.7618415 4.8285923
5.166249 -2.9708765 -3.4199371 3.986577 -3.1547868 -4.6152735 -2.8544233 -3.8019364
3.578851 -3.4734433 5.692202 4.319226 -5.5820518 -1.7319293 5.885818 4.778627
3.387321 -0.9079896 -3.3934488 5.4035625 -4.1407146 -2.432287 5.5422726 -4.9964476
-3.0462666 -2.953456 -2.6125636 -0.8986008 -1.9411516 4.0039644 -3.1249516 -2.4801733
4.847179 4.5019836 -5.9011 3.8152878 5.4025702 -3.6240277 -2.9580228 3.387099
-3.6089103 3.808547 -1.9942828 -2.600562 2.1621695 4.5496955 4.4309406 4.5007286
-3.886822 4.9085417 -3.807908 3.3246996 -3.3766046 5.2374425 -2.5483165 -5.3339014
00000000: e3d4 5c40 c8c7 3040 07a1 22c0 2acf bc40
00000010: 4907 6840 51e4 7c40 03c2 30c0 d483 9a40
00000020: e951 a540 d722 3ec0 40e0 5ac0 1424 7f40
00000030: 07e8 49c0 52b0 93c0 dfae 36c0 ed52 73c0
00000040: e50b 6540 e54c 5ec0 8526 b640 1937 8a40
00000050: 2ba0 b2c0 dcaf ddbf 9f58 bc40 83ea 9840
00000060: dec9 5840 0272 68bf 442e 59c0 fce9 ac40
00000070: bc80 84c0 97aa 1bc0 4c5a b140 e6e2 9fc0
00000080: 08f6 42c0 6c05 3dc0 3e34 27c0 b40a 66bf
00000090: a877 f8bf 7a20 8040 35ff 47c0 29bb 1ec0
000000a0: 171c 9b40 4010 9040 d0d5 bcc0 ad2d 7440
000000b0: dbe1 ac40 12f0 67c0 3f50 3dc0 3bc6 5840
000000c0: 63f8 66c0 3cbf 7340 a944 ffbf 9c6f 26c0
000000d0: fc60 0a40 1b97 9140 44ca 8d40 f805 9040
000000e0: b1c1 78c0 c612 9d40 c4b4 73c0 e1c7 5440
000000f0: 4a1a 58c0 2199 a740 9e17 23c0 52af aac0

features.2.bn.weight f4 [64]
1.0280885 1.0413356 0.9551745 0.9909211 1.0350645 1.0023421 0.95888466 0.9420361
1.0085 0.9384668 0.9902376 1.0008037 0.957787 0.9821294 1.0312117 0.93042576
1.1188208 0.9758437 0.97108364 1.0897115 0.9754083 0.9999184 0.9735257 1.0037334
1.0843806 0.9206063 0.970935 1.0272676 0.9941532 0.9556372 1.0291152 0.9811683
0.9750802 1.0020216 1.0794873 0.95393836 0.9943089 1.0092913 0.95570534 1.0047531
0.9545697 0.9534397 1.0004431 1.0973434 1.0137333 0.9775031 0.93168515 1.1093454
0.9647407 0.912786 0.97669023 0.9399349 1.146011 1.0471606 1.0118443 0.96682554
0.9742771 1.0357542 0.98815984 0.99011123 0.94546604 0.96246666 0.9237596 0.9343546
00000000: 6798 833f 7c4a 853f 5186 743f 01ad 7d3f
00000010: fe7c 843f bf4c 803f 7779 753f 4729 713f
00000020: 8716 813f 5c3f 703f 3680 7d3f 561a 803f
00000030: 8731 753f d56c 7b3f bffe 833f 6230 6e3f
00000040: 8535 8f3f e5d0 793f f098 783f ab7b 8b3f
00000050: 5cb4 793f a7fa 7f3f fb38 793f 567a 803f
00000060: fccc 8a3f dbac 6b3f 328f 783f 817d 833f
00000070: d380 7e3f a4a4 743f 0cba 833f d92d 7b3f
00000080: db9e 793f 3e42 803f a42c 8a3f 4e35 743f
00000090: 078b 7e3f 7530 813f 1ba9 743f c09b 803f
000000a0: ae5e 743f a014 743f 850e 803f c075 8c3f
000000b0: 03c2 813f a53d 7a3f eb82 6e3f 08ff 8d3f
000000c0: 3ff9 763f 58ac 693f 5f08 7a3f 939f 703f
000000d0: 7db0 923f 5c09 863f 1d84 813f e181 773f
000000e0: 396a 793f 9893 843f 0bf8 7c3f ee77 7d3f
000000f0: 100a 723f 3764 763f 827b 6c3f dd31 6f3f

features.2.conv.bias f4 [64]
0.00012154315 -0.00037683162 -9.5627394e-05 -0.00015229968 0.000431184 1.961149e-05 -2.5683978e-05 9.3207245e-06
-9.60371e-05 -1.5112251e-05 0.00018842948 1.4061814e-06 -0.00015852734 1.3173258e-05 4.8786962e-05 -4.5828776e-05
-0.00011528225 7.879048e-05 -0.00033280102 8.239212e-05 2.3695142e-05 2.0933442e-06 -0.00028873023 -5.176323e-05
4.7728776e-05 -4.8617174e-05 2.9146635e-05 0.00020001561 1.2228442e-05 -8.3977466e-05 -7.8793026e-05 1.30106755e-05
2.7442551e-05 8.11041e-05 -0.0003169757 0.0003653095 -5.301822e-06 1.2824322e-05 7.790433e-05 -2.682236e-05
-1.6804528e-06 4.7183566e-05 -0.00028631167 -3.1835967e-05 -7.005226e-05 -0.00034200563 -0.00016776352 0.00049449684
-4.1988937e-05 -4.1303856e-06 -6.6668865e-05 6.1522274e-05 0.00011581145 0.00011091082 -0.00013189852 -0.00018844928
-1.9325067e-05 7.1649316e-05 0.00013915471 -0.00019316943 9.285907e-05 1.728114e-05 -0.00014827722 -2.158754e-05
00000000: fbe4 fe38 7c91 c5b9 918b c8b8 a2b2 1fb9
00000010: 8910 e239 5b83 a437 ec73 d7b7 3560 1c37
00000020: 8767 c9b8 a08a 7db7 2795 4539 06bc bc35
00000030: 5c3a 26b9 b602 5d37 9aa0 4c38 4638 40b8
00000040: b0c3 f1b8 513c a538 cc7b aeb9 efc9 ac38
00000050: eec4 c637 617b 0c36 b760 97b9 581c 59b8
00000060: 6230 4838 4bea 4bb8 ec7f f437 48bb 5139
00000070: c228 4d37 0f1d b0b8 af3d a5b8 6d48 5a37
00000080: 6e34 e637 6f16 aa38 c22f a6b9 0387 bf39
00000090: 4ee6 b1b6 0b28 5737 9260 a338 9400 e1b7
000000a0: eb8b e1b5 f8e6 4538 1a1c 96b9 9c87 05b8
000000b0: 05e9 92b8 384f b3b9 ade9 2fb9 1fa1 013a
000000c0: 471d 30b8 be97 8ab6 93d0 8bb8 8505 8138
000000d0: ccdf f238 cb98 e838 3d4e 0ab9 789a 45b9
000000e0: 441c a2b7 6f42 9638 0fea 1139 868d 4ab9
000000f0: 55bd c238 f7f6 9037 dd7a 1bb9 e416 b5b7

predictor.3.weight f4 [5, 128]
0.008403555 -0.01742904 -0.039078563 -0.038378388 -0.028742973 -0.012645584 0.0050094505 0.042031325
0.0009061126 0.0019274831 -0.010475608 0.0015101414 0.025542691 -0.008782972 0.042662635 0.046920516
-0.018649938 0.006283988 0.011678038 0.05997407 0.014824426 -0.013039557 -0.02076756 -0.005735732
-0.015285745 0.018224342 -0.009823633 0.009797955 -0.06738698 0.001962478 0.03516534 0.025713243
0.016794555 -0.025015723 0.0010184554 0.041970804 0.08711959 -0.052187797 0.05989843 0.010649516
0.015439739 0.008762958 0.027975447 0.007837131 -0.014766226 0.08579328 -0.0024665752 -0.07377644
0.026218563 -0.064009495 0.06947296 -0.02423355 -0.019565972 0.038976822 -0.04236606 -0.014734633
-0.016494805 -0.013687503 0.017999155 0.019700209 0.010050096 -0.027892487 0.019441217 0.0636001
-0.013706195 0.03168634 -0.034033544 -0.075977914 0.03449317 -0.044524755 0.020916041 -0.0464999
0.038841683 0.0062423972 0.05365994 -0.026680404 0.017649896 0.034772664 -0.0018924905 0.04004379
0.037695337 0.035644528 -0.048793193 -0.05259452 0.014242991 -0.057232514 0.012588106 -0.058630224
-0.0692673 0.008831507 -0.015892647 0.0047419784 -0.055253733 0.0451889 0.0048783035 0.014428951
0.005947815 0.010390673 0.04956246 0.028176526 0.042670645 0.013609197 -0.047803283 0.023959601
-0.04620305 0.08057923 0.10202237 -0.043332867 0.045179628 0.050492797 0.08829066 -0.011620538
0.06163225 0.0048369216 0.10130026 -0.00027272667 0.041686743 -0.0012188957 -0.045318015 0.015233231
0.022946754 0.026707025 0.024860574 -0.029020194 -0.049416225 -0.025216356 0.07357674 0.041712157
-0.028740857 0.041392826 0.063372836 -0.03370383 0.008832853 0.055363446 0.0005755181 0.0039119334
-0.006765242 0.0115083875 -0.0434471 -0.0083311815 -0.07908625 -0.07847079 -0.0028190252 -0.0035646264
0.0019529603 0.06444314 0.025801573 0.027289618 -0.00027064662 -0.03789074 0.109670006 0.0014634279
0.01570425 -0.028176045 0.07201613 0.08888932 -0.044321194 0.040427577 -0.032370567 -0.0028591943
-0.025357345 0.09242344 0.014509475 0.006166771 -0.071892686 -0.028403353 0.027964436 0.016352884
-0.0037080208 0.03294874 0.033117607 0.018291516 0.0049592573 -0.05452007 -0.034649607 0.0086863665
0.0513409 0.014522854 -0.038881473 -0.03297785 0.047817692 0.034749538 -0.027443115 -0.04172159
0.042310126 0.002139114 -0.04206802 -0.0061006206 0.03114408 0.022108411 0.024194146 -0.04116885
-0.017328931 0.02471159 0.08365937 0.04217591 0.07119986 -0.0110250125 0.013513699 -0.019466676
-0.057896215 0.016248008 0.016697288 -0.0061179954 -0.069919 -0.038376354 0.016528359 0.0074885865
-0.028905882 0.022701845 -0.0030520093 0.039809015 0.016397571 -0.0066753235 0.018426722 -0.059801936
0.034023315 -0.05377162 -0.071446896 0.033507746 -0.041399654 0.06426995 0.015166108 -0.009542504
0.017706407 -0.0041883364 -0.044177804 0.03138337 -0.010222286 -0.0075071766 -0.024267953 -0.018733853
0.051964067 -0.028650224 -0.049617965 0.034980234 0.005441863 0.06154883 0.022922134 0.093326576
-0.013761464 -0.056486614 0.012572157 0.05745757 0.04209613 0.012135627 -0.04880139 0.0004181348
0.011769684 -0.020431764 0.059317198 0.013216291 -0.04660084 0.030536944 0.10899993 -0.0062959786
00000000: 10af 093c 59c7 8ebc d810 20bd a832 1dbd
00000010: 6276 ebbc 6c2f 4fbc 5126 a43b 0a29 2c3d
00000020: 3088 6d3a 9aa3 fc3a e2a1 2bbc f0ef c53a
00000030: e83e d13c 74e6 0fbc 04bf 2e3d ba2f 403d
00000040: c1c7 98bc e9e9 cd3b 3e55 3f3c 5fa7 753d
00000050: 26e2 723c dea3 55bc bb20 aabc cff2 bbbb
00000060: 1071 7abc 374b 953c 4ef3 20bc 9a87 203c
00000070: 2f02 8abd eb9c 003b 8809 103d 94a4 d23c
00000080: bc94 893c c6ed ccbc b17d 853a 94e9 2b3d
00000090: c16b b23d dfc2 55bd 0e58 753d 4f7b 2e3c
000000a0: f6f6 7c3c 8392 0f3c c42c e53c 4f67 003c
000000b0: 0aee 71bc 63b4 af3d 44a6 21bb 1a18 97bd
000000c0: 50c8 d63c 6917 83bd d747 8e3d 7085 c6bc
000000d0: d148 a0bc 29a6 1f3d 0988 2dbd 8869 71bc
000000e0: 1d20 87bc 8c41 60bc f772 933c 5562 a13c
000000f0: 28a9 243c c97e e4bc 3043 9f3c c540 823d
00000100: f38f 60bc 89c9 013d c266 0bbd 4f9a 9bbd
00000110: b648 0d3d 975f 36bd 1e58 ab3c ae76 3ebd
00000120: 7518 1f3d 068d cc3b 86ca 5b3d dd90 dabc
00000130: 8496 903c c86d 0e3d 720d f8ba f504 243d
00000140: 6d66 1a3d ffff 113d 5fdb 47bd 5a6d 57bd
00000150: 6f5b 693c a46c 6abd 583e 4e3c 3f26 70bd
00000160: 04dc 8dbd 06b2 103c 4c31 82bc 9962 9b3b
00000170: bd51 62bd ff17 393d 2dda 9f3b 6867 6c3c
00000180: e3e5 c23b a43d 2a3c 0202 4b3d 75d2 e63c
00000190: 6ac7 2e3d 1cf9 5e3c 60cd 43bd ed46 c43c
000001a0: 693f 3dbd b906 a53d 1bf1 d03d ce7d 31bd
000001b0: 460e 393d 89d1 4e3d bcd1 b43d 1264 3ebc
000001c0: 1972 7c3d 0a7f 9e3b 8376 cf3d c1fc 8eb9
000001d0: b8bf 2a3d 5ac3 9fba 629f 39bd cd94 793c
000001e0: d5fa bb3c b1c8 da3c 67a8 cb3c c2bb edbc
000001f0: ab68 4abd 8892 cebc 67af 963d 5eda 2a3d
00000200: f271 ebbc 868b 293d 9ec9 813d 070d 0abd
00000210: acb7 103c c8c4 623d 5ede 163a ad2f 803b
00000220: f7ae ddbb ad8d 3c3c 96f5 31bd 827f 08bc
00000230: f9f7 a1bd 4bb5 a0bd 65bf 38bb 829c 69bb
00000240: 79fa ff3a c4fa 833d d25d d33c 7a8e df3c
00000250: 93e5 8db9 5233 1bbd ab9a e03d 7ed0 bf3a
00000260: 33a6 803c 73d1 e6bc 317d 933d 9b0b b63d
00000270: 248a 35bd 6397 253d 0097 04bd 5261 3bbb
00000280: 35ba cfbc 8048 bd3d 26b9 6d3c a012 ca3b
00000290: 793c 93bd 26ae e8bc ac15 e53c 7cf6 853c
000002a0: 4402 73bb 42f5 063d 54a6 073d 17d8 953c
000002b0: 4481 a23b 7050 5fbd bfec 0dbd 4351 0e3c
000002c0: d64a 523d 44f1 6d3c 2e42 1fbd c813 07bd
000002d0: 7cdc 433d 8855 0e3d 62d0 e0bc 42e4 2abd
000002e0: 624d 2d3d 6130 0c3b 844f 2cbd b7e7 c7bb
000002f0: df21 ff3c b31c b53c cd32 c63c aba0 28bd
00000300: 67f5 8dbc f66f ca3c 9b55 ab3d a6c0 2c3d
00000310: 3bd1 913d 41a2 34bc 9068 5d3c 9478 9fbc
00000320: 9524 6dbd 8b1a 853c c0c8 883c 7779 c8bb
00000330: b131 8fbd 8630 1dbd 7b66 873c d162 f53b
00000340: 07cc ecbc 38f9 b93c 3804 48bb c70e 233d
00000350: 3354 863c acbc dabb a3f3 963c e0f2 74bd
00000360: 085c 0b3d a13f 5cbd c052 92bd 6b3f 093d
00000370: af92 29bd f79f 833d 447b 783c 2a58 1cbc
00000380: 070d 913c 503e 89bb c9f3 34bd d98b 003d
00000390: 607b 27bc c3fe f5bb 96cd c6bc bd77 99bc
000003a0: 46d8 543d e0b3 eabc 353c 4bbd 6f47 0f3d
000003b0: a851 b23b a01a 7c3d 33c7 bb3c 0122 bf3d
000003c0: c377 61bc 825e 67bd 73fb 4d3c a158 6b3d
000003d0: fe6c 2c3d 82d4 463c f7e3 47bd 1a39 db39
000003e0: a2d5 403c 8460 a7bc 97f6 723d 2489 583c
000003f0: 86e0 3ebd 9d28 fa3c 5b3b df3d 7f4e cebb

features.4.bn.bias f4 [128]
-0.08631164 -0.060396843 -0.07664394 -0.11283494 0.012167206 -0.108736806 -0.09041356 -0.045046605
-0.06805756 -0.13863008 -0.11866881 -0.0721519 -0.14296009 -0.11077919 -0.012488754 -0.08980991
-0.26789626 -0.17503943 -0.084240004 -0.0033162788 -0.100881584 -0.06732343 -0.16754499 -0.17780605
-0.06693979 -0.077345535 -0.0112763345 -0.06569452 -0.04309673 -0.057066746 -0.0093577625 -0.058553662
-0.13060422 -0.05685528 -0.0701678 -0.08883789 -0.11180965 -0.080928884 0.056040253 -0.066067204
-0.09363191 -0.15866685 -0.16464129 -0.04857967 -0.12230266 -0.09158786 -0.13330807 -0.050529923
-0.1651288 -0.074347265 -0.11007517 -0.12017511 -0.0016120628 -0.07995056 -0.10662797 -0.23552543
-0.078863956 -0.025963988 0.026573474 0.031242479 -0.067838125 0.050578363 -0.03269458 -0.06227968
-0.10848025 -0.05310394 0.0006569355 -0.13620302 -0.14363159 -0.05772553 -0.056044854 -0.003566115
-0.027074259 -0.14148983 -0.046349537 -0.04097535 -0.0796228 -0.1737954 -0.102298394 -0.038971376
-0.26348346 -0.08993432 -0.036123853 -0.016409067 -0.14425749 -0.050981544 -0.17643745 -0.14276676
-0.04876006 -0.13653925 -0.13855836 -0.025483407 -0.056700982 -0.06457133 -0.16765714 -0.21039866
-0.16774862 0.009404704 -0.11752336 -0.075925454 -0.05066499 -0.14788188 -0.056123815 -0.021335017
-0.01660066 -0.027336432 -0.07512064 -0.084196754 -0.1803973 -0.13906 -0.14117932 -0.032558408
-0.21818839 0.023219869 -0.03987797 -0.08928251 -0.15613809 0.0057141795 0.043634288 -0.15718345
0.011522521 -0.18296048 -0.21191497 -0.04821324 -0.05012311 -0.27690744 -0.013905217 -0.12948287
00000000: 28c4 b0bd ae62 77bd 7ff7 9cbd 0116 e7bd
00000010: f658 473c 67b1 debd bf2a b9bd ca82 38bd
00000020: c361 8bbd 0bf5 0dbe a208 f3bd 60c4 93bd
00000030: 2164 12be 33e0 e2bd a19d 4cbc 42ee b7bd
00000040: b329 89be 893d 33be 0686 acbd ed55 59bb
00000050: 019b cebd dee0 89bd ea90 2bbe ca12 36be
00000060: bb17 89bd 5667 9ebd 60c0 38bc d98a 86bd
00000070: 3286 30bd d2be 69bd 4d51 19bc f7d5 6fbd
00000080: 1dbd 05be 15e1 68bd 23b4 8fbd a4f0 b5bd
00000090: 75fc e4bd 0bbe a5bd 778a 653d 3e4e 87bd
000000a0: 16c2 bfbd 9079 22be ba97 28be 7afb 46bd
000000b0: d179 fabd 6a92 bbbd e981 08be 77f8 4ebd
000000c0: 8617 29be 6143 98bd 176f e1bd 5e1e f6bd
000000d0: da4b d3ba 1fbd a3bd c45f dabd 942d 71be
000000e0: 6d83 a1bd 6eb2 d4bc 9db0 d93c 3af0 ff3c
000000f0: b7ee 8abd 422b 4f3d c0ea 05bd fa18 7fbd
00000100: e52a debd 8483 59bd 3236 2c3a ce78 0bbe
00000110: 2914 13be 9b71 6cbd 4a8f 65bd 7bb5 69bb
00000120: d6ca ddbc b6e2 10be 03d9 3dbd c5d5 27bd
00000130: 4711 a3bd 6cf7 31be d281 d1bd 73a0 1fbd
00000140: 4ee7 86be 7c2f b8bd 9bf6 13bd 4f6c 86bc
00000150: 3cb8 13be 06d2 50bd 05ac 34be 7331 12be
00000160: a1b8 47bd f2d0 0bbe 3ee2 0dbe 94c2 d0bc
00000170: 4a3f 68bd f93d 84bd 50ae 2bbe bf72 57be
00000180: 4bc6 2bbe 3016 1a3c 16b0 f0bd ce7e 9bbd
00000190: 1886 4fbd 596e 17be 16e2 65bd c6c6 aebc
000001a0: 1bfe 87bc a7f0 dfbc dad8 99bd 596f acbd
000001b0: 12ba 38be bf65 0ebe 5091 10be f75b 05bd
000001c0: c76c 5fbe 9837 be3c 1557 23bd c0d9 b6bd
000001d0: aae2 1fbe 033e bb3b deb9 323d b3f4 20be
000001e0: f5c8 3c3c fe59 3bbe 3d00 59be 3f7b 45bd
000001f0: e44d 4dbd d0c6 8dbe b5d2 63bc 2897 04be

features.0.bn.running_var f4 [32]
0.00025639858 0.00040522375 0.0008814597 0.002727048 0.00035415697 0.00020488439 0.0003578075 0.002419658
0.00033875692 0.00038065537 0.00047643424 0.002158308 0.00038982445 0.00045006594 0.0032581165 0.00020879069
0.0049376055 0.0004430115 0.0012897586 0.0002566658 0.00027454738 0.0025187477 0.0029423707 0.00040599363
0.00026351068 0.002394478 0.0011877075 0.00023796878 0.0002606797 0.0002844462 0.00020448245 0.0012572854
00000000: 3c6d 8639 3674 d439 c211 673a 46b8 323b
00000010: 25ae b939 3cd6 5639 1c98 bb39 2093 1e3b
00000020: 2f9b b139 b392 c739 ecc9 f939 6672 0d3b
00000030: 5a61 cc39 d4f6 eb39 2086 553b d3ee 5a39
00000040: a3cb a13b ff43 e839 1e0d a93a 1a91 8639
00000050: 20f1 8f39 9311 253b cad4 403b 8bdb d439
00000060: ce27 8a39 adec 1c3b daac 9b3a 4287 7939
00000070: d6ab 8839 b921 9539 576a 5639 7fcb a43a
